TOPGRID_MORL/data/rewards/5bus_maxgymsteps_16/training_rewards_seed_42_weights_0.4106193556651509_0.0_0.5893806443348492.npy (npy, 512 bytes, 1 tensors)

array f8 [16, 3]
000000 b3 72 68 77 bb 1d f2 3f 4c c5 d9 87 7d 78 f0 3f
       1.1322588600516326 1.0294165903727217
000010 5e df 4f 8d 97 6e e2 bf 00 00 00 00 00 00 00 00
       -0.5760000000000038 0.0
000020 00 00 00 00 00 00 00 00 00 00 00 00 00 00 00 00
       0.0 0.0
000030 68 91 ed 7c bf 97 30 3f e2 33 ec 0a 90 98 32 3f
       0.00025318551063537595 0.000283751646677653
000040 bc 70 7c 04 52 f7 38 bf 00 00 00 00 00 00 00 00
       -0.0003809523809523809 0.0
000050 00 00 00 00 00 00 00 00 00 00 00 00 00 00 00 00
       0.0 0.0
000060 a6 54 9c 27 7a 21 d0 3f a7 f4 00 03 19 6a cf 3f
       0.2520432841132084 0.245425344912211
000070 4d 32 7a 5b d6 ea b8 bf da 40 a7 0d 74 37 32 3f
       -0.09733333333333256 0.00027796347935994464
000080 cb eb 9b 0e 77 16 35 3f 8d 54 5d 83 7d b9 42 bf
       0.00032177359263102213 -0.0005714285714285714
000090 00 00 00 00 00 00 00 00 00 00 00 00 00 00 00 00
       0.0 0.0
0000a0 00 00 00 00 00 00 00 00 7e a4 29 e7 a8 4e eb 3f
       0.0 0.853352023591597
0000b0 3d a1 b1 c9 9e b6 ec 3f 62 7e 6a bc 74 93 e8 bf
       0.8972925128300983 -0.7679999999999831
0000c0 00 00 00 00 00 00 00 00 60 e5 d0 22 db 01 1f 3f
       0.0 0.00011828327178955078
0000d0 bc 70 7c 04 52 f7 18 bf f5 ee ee f6 e4 db ee 3f
       -9.523809523809523e-05 0.9643425772587465
0000e0 81 7c d0 f3 ef 15 ef 3f b3 73 9f 5d 40 6c e2 bf
       0.9714278947830196 -0.5757142857142895
0000f0 9c c4 20 b0 72 69 21 3f d1 22 db f9 fe 74 31 3f
       0.0001328423023223877 0.0002663729190826416
000100 bc 70 7c 04 52 f7 28 bf f3 ee ee ae c7 ae a5 3f
       -0.00019047619047619045 0.04234909067551298
000110 ff b2 7b f2 6e fb a4 3f 62 86 1e 07 f7 5b a1 bf
       0.040980784511566164 -0.033904761904761896
000120 5b d6 ea 98 e0 1d 2d 3f 99 05 ed e8 92 2d 32 3f
       0.00022214285532633462 0.0002773746172587077
000130 00 00 00 00 00 00 00 00 00 00 00 00 00 00 00 00
       0.0 0.0
000140 00 00 00 00 00 00 00 00 00 00 00 00 00 00 00 00
       0.0 0.0
000150 00 00 00 00 00 00 00 00 00 00 00 00 00 00 00 00
       0.0 0.0
000160 00 00 00 00 00 00 00 00 6f 84 32 3a 9e a9 a3 3f
       0.0 0.03840345821777979
000170 b0 25 e4 83 06 ef a3 3f a0 94 0c bf 19 f8 90 bf
       0.03893299446105958 -0.01657142857142857
