TOPGRID_MORL/data/rewards/5bus_maxgymsteps_16/training_rewards_seed_42_weights_0.3629387344320041_0.0_0.6370612655679959.npy (npy, 512 bytes, 1 tensors)

array f8 [16, 3]
00000000: a08e 09ad 9989 f13f c0d3 2be5 4682 f03f
00000010: 627e 6abc 7493 d8bf 4219 bd2d 6be4 293f
00000020: cff7 53e3 a51c 2f3f ec8c 9b85 2635 3fbf
00000030: 9e61 5700 45c9 a23f 277b 5e04 687c a33f
00000040: 2db4 c876 be9f 9abf 31dd 24ee 5c99 e53f
00000050: 5acd 60d9 4b38 e83f 5ae7 368d 5874 e7bf
00000060: d615 20cf 7f76 c83f ff65 f764 e435 cb3f
00000070: a554 5d83 7db9 c2bf 0000 0000 0000 0000
00000080: 0000 0000 0000 0000 0000 0000 0000 0000
00000090: d6ce f753 5e52 973f fece 1c7f 1f60 9a3f
000000a0: bf70 7c04 52f7 88bf 2a15 671f 3e76 2d3f
000000b0: daf6 50b5 f0c9 313f bc70 7c04 52f7 38bf
000000c0: eadf 0865 74f7 303f d8cb c99e 17ef 323f
000000d0: ec8c 9b85 2635 3fbf 0000 0000 0000 0000
000000e0: 0000 0000 0000 0000 0000 0000 0000 0000
000000f0: b2b9 90b4 876e 9d3f e411 ef13 6093 a13f
00000100: c762 4b3b a055 92bf b581 4e1b 68d8 2c3f
00000110: fa34 1464 f106 323f 0000 0000 0000 0000
00000120: 3108 ac1c 96dc 683f 5dd9 184e cc02 6a3f
00000130: 467f 27ab e58d 71bf f56f 8432 bae2 353f
00000140: 27e7 b153 9929 373f bc70 7c04 52f7 48bf
00000150: dbf9 7e6a bc6d 143f 6519 e258 1795 2d3f
00000160: ec8c 9b85 2635 3fbf e8a5 9b14 a4ab e53f
00000170: 1163 eeda 3670 e83f 3f2c f9c5 925f f4bf
1.0960938224097063 1.0318058921813957 -0.38399999999999157 0.0001975422700246175 0.0002373650074005127 -0.0004761904761904762 0.03669181470076242 0.03805851987202962
-0.025999999999999957 0.6749710704088213 0.756872105185191 -0.732952380952365 0.19111631024877224 0.21258215837478642 -0.14628571428571494 0.0
0.0 0.0 0.022775148272514333 0.025757305272420254 -0.012190476190476194 0.0002247763474782308 0.0002714359919230143 -0.0003809523809523809
0.00025889007250467935 0.00028890921274820963 -0.0004761904761904762 0.0 0.0 0.0 0.028741951366265624 0.03432750933965048
-0.017904761904761892 0.00022007246812184652 0.0002750720342000326 0.0 0.003034871280193329 0.0031751623471577965 -0.004285714285714287 0.0003339485724767049
0.0003534316380818685 -0.0007619047619047618 7.792913913726806e-05 0.00022569570541381835 -0.0004761904761904762 0.6772022631168371 0.763698031997679 -1.273333333333326
