TOPGRID_MORL/data/rewards/5bus_maxgymsteps_16/training_rewards_seed_42_weights_0.0_0.6392358013678263_0.3607641986321736.npy (npy, 512 bytes, 1 tensors)

array f8 [16, 3]
00000000: 0000 0000 0000 0000 85c6 260c dd9d 1f3f
00000010: bc70 7c04 52f7 18bf 9b0b 4953 aa0d 2c3f
00000020: 2859 610d 2ada 333f bc70 7c04 52f7 28bf
00000030: 5bab 63c2 977e a33f 9d5e 29cb 9ae6 a23f
00000040: ef8c 9b85 2635 9fbf 0000 0000 0000 0000
00000050: 0000 0000 0000 0000 0000 0000 0000 0000
00000060: 2b87 16d9 cec5 283f eb2c 8d72 43f6 363f
00000070: bc70 7c04 52f7 38bf 0000 0000 0000 0000
00000080: 0000 0000 0000 0000 0000 0000 0000 0000
00000090: 67d8 1520 8cce 983f e180 7018 e7eb 9d3f
000000a0: 0000 0000 0000 0000 46b6 f3fd d445 3d3f
000000b0: 6c2e 244d 2966 423f bc70 7c04 52f7 38bf
000000c0: c011 cae8 6d7f 303f f3fa a6c3 1db8 323f
000000d0: ec8c 9b85 2635 3fbf 9643 8b6c 6745 203f
000000e0: 218b 47bc 4f7c 2a3f ec8c 9b85 2635 3fbf
000000f0: e969 4297 b11b 1f3f c9e5 3fa4 df8d 2a3f
00000100: bc70 7c04 52f7 28bf c081 4e63 ba85 ee3f
00000110: 1d1a 9bb0 61e4 ee3f 5edf 4f8d 976e e2bf
00000120: a3b7 65ad 8e15 273f 609b 7aca 57d0 363f
00000130: 8d54 5d83 7db9 32bf e16b 2e69 6f16 e43f
00000140: 5dc1 a8e4 0574 e33f fbe6 799e e779 debf
00000150: a01a 2fdd e40d 4c3f 2428 7e8c b9a7 4b3f
00000160: bc70 7c04 52f7 58bf 4e1b e8b4 81c1 4b3f
00000170: 3480 b740 82db 4b3f 8d54 5d83 7db9 52bf
0.0 0.0001206079641977946 -9.523809523809523e-05 0.00021403030554453532 0.00030292059580485026 -0.00019047619047619045 0.03807520149151485 0.036915623950958244
-0.030476190476190487 0.0 0.0 0.0 0.00018900060653686523 0.0003503718058268229 -0.0003809523809523809 0.0
0.0 0.0 0.02422541566689809 0.029220209948221835 0.0 0.0004466671943664551 0.0005614949862162272 -0.0003809523809523809
0.0002517360051472982 0.0002856323877970378 -0.0004761904761904762 0.00012413871288299562 0.00020206902821858725 -0.0004761904761904762 0.00011866828373500279 0.00020259242057800293
-0.00019047619047619045 0.953824228247008 0.9653786134084076 -0.5760000000000038 0.000176118532816569 0.0003481115659077962 -0.0002857142857142857 0.6277386717150614
0.6079129663467416 -0.4761904761904671 0.0008561484813690186 0.0008439689636230469 -0.0015238095238095236 0.0008470424016316731 0.0008501420974731445 -0.0011428571428571427
