TOPGRID_MORL/data/rewards/5bus_maxgymsteps_16/training_rewards_seed_42_weights_7.541251355964929e-17_0.41130429203823693_0.5886957079617631.npy (npy, 512 bytes, 1 tensors)

array f8 [16, 3]
000000 01 9d 36 d0 b4 18 b5 3f 8d b9 6b 09 f3 76 b7 3f
       0.08240823825200395 0.09165877323150635
000010 48 cd 07 b0 33 6e a6 bf 00 00 00 00 00 00 00 00
       -0.0438095238095238 0.0
000020 00 00 00 00 00 00 00 00 00 00 00 00 00 00 00 00
       0.0 0.0
000030 8b 88 88 f8 ea 5d b0 3f dd b8 b2 31 01 1a b0 3f
       0.06393307273586595 0.06289679969151814
000040 e5 a2 fa 76 3c 94 b0 bf 8d 97 6e 12 03 16 37 3f
       -0.06476190476190487 0.0003522641658782959
000050 5a 1a e5 86 cc ae 36 3f 8d 54 5d 83 7d b9 42 bf
       0.00034611218770345053 -0.0005714285714285714
000060 3f 7c 86 5d 41 19 52 3f d6 0c 96 d7 37 f2 51 3f
       0.0011046541531880697 0.0010953469594319662
000070 1f ff c8 33 ad 10 65 bf 00 00 00 00 00 00 00 00
       -0.0025714285714285713 0.0
000080 00 00 00 00 00 00 00 00 00 00 00 00 00 00 00 00
       0.0 0.0
000090 00 00 00 00 00 00 00 00 00 00 00 00 00 00 00 00
       0.0 0.0
0000a0 00 00 00 00 00 00 00 00 68 91 ed 8c f7 38 c6 3f
       0.0 0.17361349469423293
0000b0 40 6d a0 53 6b 68 c6 3f c2 71 74 d6 29 93 bb bf
       0.17506162246068335 -0.10771428571428657
0000c0 63 c9 2f 96 bc 19 33 3f 01 4d 84 0d 4f 00 36 3f
       0.0002914510170618693 0.00033571176528930663
0000d0 ec 8c 9b 85 26 35 3f bf 00 00 00 00 00 00 00 00
       -0.0004761904761904762 0.0
0000e0 00 00 00 00 00 00 00 00 00 00 00 00 00 00 00 00
       0.0 0.0
0000f0 25 94 d1 db 74 ec 9b 3f bb 27 0f 0b 9d 9f a0 3f
       0.027269197384516403 0.032467753982543944
000100 00 00 00 00 00 00 00 00 00 00 00 00 00 00 00 00
       0.0 0.0
000110 00 00 00 00 00 00 00 00 00 00 00 00 00 00 00 00
       0.0 0.0
000120 ea 6d 59 ab 62 f0 98 3f d9 7e 45 91 38 1f 9e 3f
       0.024354497631390894 0.02941597353617351
000130 1c b1 e8 2e 5f 30 90 bf e6 89 fa 37 42 e8 2c 3f
       -0.015809523809523815 0.00022054489453633626
000140 c9 0a 6b 50 21 10 32 3f 8d 54 5d 83 7d b9 32 bf
       0.000275619633992513 -0.0002857142857142857
000150 23 94 d1 db 72 89 37 3f 8d 4d 18 ba ff eb 38 3f
       0.0003591447273890177 0.0003802775700887044
000160 bc 70 7c 04 52 f7 28 bf 00 00 00 00 00 00 00 00
       -0.00019047619047619045 0.0
000170 00 00 00 00 00 00 00 00 00 00 00 00 00 00 00 00
       0.0 0.0
