TOPGRID_MORL/data/rewards/5bus_maxgymsteps_16/training_rewards_seed_42_weights_0.0_0.4837326607818412_0.5162673392181588.npy (npy, 512 bytes, 1 tensors)

array f8 [16, 3]
000000 1d 5a 64 3b 5f 9e 35 3f 86 13 ab 19 2c 2d 36 3f
       0.0003298742771148682 0.0003383858362833659
000010 bc 70 7c 04 52 f7 38 bf 00 00 00 00 00 00 00 00
       -0.0003809523809523809 0.0
000020 00 00 00 00 00 00 00 00 00 00 00 00 00 00 00 00
       0.0 0.0
000030 ee df 08 fb d5 45 ee 3f 59 11 5b c7 d2 f3 ed 3f
       0.9460248854657018 0.9360135930697125
000040 5e df 4f 8d 97 6e e2 bf 93 8a b3 5f a2 d8 b8 3f
       -0.5760000000000038 0.09705557667215663
000050 91 21 8e 75 e5 df b6 3f c5 02 23 59 ee 74 b1 bf
       0.08935388679504387 -0.06819047619047598
000060 4d 9c 7d 10 61 03 e7 3f e3 7a 14 ae 22 07 e9 3f
       0.7191624948581051 0.7821210289001467
000070 18 1e 46 f1 d6 64 e6 bf fb f0 19 76 65 9b 3f 3f
       -0.6998095238095088 0.0004822848041852315
000080 4f 1b e8 b4 81 05 3e 3f 8d 54 5d 83 7d b9 32 bf
       0.0004580918947855632 -0.0002857142857142857
000090 5c 01 72 2f a7 c1 a6 3f df 2d 90 a0 c4 89 a8 3f
       0.044446205655733734 0.04792608699798583
0000a0 99 e2 ec c3 67 d8 85 bf 00 00 00 00 00 00 00 00
       -0.010666666666666645 0.0
0000b0 00 00 00 00 00 00 00 00 00 00 00 00 00 00 00 00
       0.0 0.0
0000c0 dc 6b 2e a4 d7 4e a3 3f d2 aa cf d5 60 da a6 3f
       0.03771089438597361 0.04463484392166141
0000d0 00 00 00 00 00 00 00 00 00 00 00 00 00 00 00 00
       0.0 0.0
0000e0 00 00 00 00 00 00 00 00 00 00 00 00 00 00 00 00
       0.0 0.0
0000f0 db 24 86 a6 01 56 f0 3f 44 bf 7d dd 26 a5 ef 3f
       1.0209976677745576 0.9889101339340205
000100 5e df 4f 8d 97 6e e2 bf 82 32 7a 5b 53 f3 aa 3f
       -0.5760000000000038 0.05263767711321511
000110 cf 66 d5 e7 08 ee ab 3f 82 a2 3d 88 cb 99 a7 bf
       0.054550436305999754 -0.04609523809523798
000120 64 ad 8e 09 25 1c 99 3f f6 06 5f 98 48 37 9f 3f
       0.024521425922711684 0.030484327602386473
000130 4b 46 6f cb 5a 1d 93 bf 6e a0 d3 18 a8 61 f0 3f
       -0.018666666666666647 1.023841950396697
000140 c9 c9 9e b7 c5 de ed 3f 4d 9d fb ec 02 62 eb bf
       0.9334438883145647 -0.8557142857143077
000150 48 e1 7a 14 0e 20 3a 3f e4 39 48 75 27 d5 3a 3f
       0.00039863914251327516 0.0004094334920247396
000160 bc 70 7c 04 52 f7 38 bf 48 9a 52 71 56 e3 38 3f
       -0.0003809523809523809 0.0003797613183657328
000170 29 12 39 6a 72 b6 38 3f 8d 54 5d 83 7d b9 42 bf
       0.0003770856221516927 -0.0005714285714285714
