TOPGRID_MORL/data/rewards/5bus_maxgymsteps_16/training_rewards_seed_42_weights_0.0_0.15454545454545454_0.8454545454545455.npy (npy, 512 bytes, 1 tensors)

array f8 [16, 3]
000000 7e fb 3a 70 ce f4 36 3f b8 1e 85 eb 51 e8 4f 3f
       0.00035028495788574216 0.0009737396240234375
000010 06 a5 53 48 17 98 1b bf c7 4b 37 89 41 f2 36 3f
       -0.00010526315789473683 0.00035013294219970705
000020 bb 4c 3a b7 f6 91 4f 3f 44 20 86 3f b8 18 30 bf
       0.0009634451548258463 -0.0002456140350877193
000030 14 0d 44 32 e5 fd 32 3f 14 d0 44 d8 f0 60 4c 3f
       0.0002897915421870717 0.0008660484313964844
000040 06 a5 53 48 17 98 3b bf 00 00 00 00 00 00 00 00
       -0.00042105263157894734 0.0
000050 00 00 00 00 00 00 00 00 00 00 00 00 00 00 00 00
       0.0 0.0
000060 c5 d9 87 cf b0 33 2d 3f 80 23 94 d1 db ae 4a 3f
       0.0002227929433186849 0.0008143018086751302
000070 04 6e e2 da 64 65 12 bf 00 00 00 00 00 00 00 00
       -7.017543859649122e-05 0.0
000080 00 00 00 00 00 00 00 00 00 00 00 00 00 00 00 00
       0.0 0.0
000090 fc 37 42 19 2d b6 ac 3f 11 55 0b ff 34 a1 c3 3f
       0.056077393849690765 0.15335714772542322
0000a0 c4 a0 f1 4f 93 0c 9a bf 7a 7d d3 e1 7e c7 7b 3f
       -0.025438596491228052 0.006782050736745199
0000b0 31 e3 80 70 80 31 93 3f c2 bb 3e 76 11 b2 64 bf
       0.018743521563212077 -0.002526315789473683
0000c0 98 24 bc 2a 3d e0 30 3f a6 9b c4 20 b0 a9 4a 3f
       0.00025750630696614587 0.000813685417175293
0000d0 06 a5 53 48 17 98 2b bf 16 d6 a0 42 88 c9 36 3f
       -0.00021052631578947367 0.000347705618540446
0000e0 e1 9f 3f 5a 89 68 4f 3f 06 a5 53 48 17 98 2b bf
       0.0009585066477457682 -0.00021052631578947367
0000f0 8c 6f 15 b1 75 bf 36 3f 5c d9 18 4e ac 17 4f 3f
       0.00034710524876912434 0.0009488669713338216
000100 c5 bb 3e 76 11 b2 34 bf ef 10 ec e5 64 0b 38 3f
       -0.00031578947368421053 0.0003668900807698568
000110 75 93 18 04 56 1e 50 3f 46 57 f7 ac 6a 4b 39 bf
       0.000983795166015625 -0.00038596491228070175
000120 91 56 a2 d9 62 b1 38 3f 5b 42 3e e8 d9 c8 50 3f
       0.00037678397496541347 0.0010244491577148438
000130 06 a5 53 48 17 98 3b bf c5 fd 45 d4 3c 9f 35 3f
       -0.00042105263157894734 0.0003299258717319421
000140 88 f4 db d7 81 af 4e 3f 46 57 f7 ac 6a 4b 39 bf
       0.0009364494323730469 -0.00038596491228070175
000150 00 00 00 00 00 00 00 00 00 00 00 00 00 00 00 00
       0.0 0.0
000160 00 00 00 00 00 00 00 00 6a b9 46 de 4c fc 33 3f
       0.0 0.000304955259958903
000170 b1 50 6b 9a 77 35 4c 3f 06 a5 53 48 17 98 1b bf
       0.0008608659744262695 -0.00010526315789473683
