TOPGRID_MORL/data/rewards/5bus_maxgymsteps_16/training_rewards_seed_42_weights_0.3725216294160057_0.0_0.6274783705839942.npy (npy, 512 bytes, 1 tensors)

array f8 [16, 3]
000000 3b a5 e2 a0 00 e6 e7 3f 9c e0 c1 bc c1 49 ea 3f
       0.7468264715472864 0.8215035139719649
000010 62 7e 6a bc 74 93 e8 bf a9 7f 23 94 d1 48 29 3f
       -0.7679999999999831 0.00019290502866109213
000020 45 47 72 f9 0f 54 31 3f bc 70 7c 04 52 f7 28 bf
       0.0002644099235534668 -0.00019047619047619045
000030 01 f1 19 4c ff cf f1 3f 7d ae b6 c2 1c 4c f0 3f
       1.1132805798252436 1.0185821157455444
000040 61 6c b4 46 6b b4 ee bf 8f 3f 35 fd 71 f0 ee 3f
       -0.9595238095238409 0.9668512292355319
000050 91 9d ca 1c 59 90 ee 3f 5e df 4f 8d 97 6e e2 bf
       0.955120617135366 -0.5760000000000038
000060 35 a5 e2 ec c3 ab 22 3f 42 19 bd 2d 6b c1 2c 3f
       0.00014244810740152996 0.00021938737233479817
000070 bc 70 7c 04 52 f7 28 bf 00 00 00 00 00 00 00 00
       -0.00019047619047619045 0.0
000080 00 00 00 00 00 00 00 00 00 00 00 00 00 00 00 00
       0.0 0.0
000090 08 58 39 bd 26 76 f1 3f 78 17 dc ec b1 5a f0 3f
       1.091345538288353 1.0221423389752697
0000a0 5e df 4f 8d 97 6e e2 bf db 40 a7 0d 4f 98 9f 3f
       -0.5760000000000038 0.030854449470837913
0000b0 94 d1 db b2 44 4d a1 3f 75 70 bf 15 e1 fc 9f bf
       0.033792635758717854 -0.03123809523809525
0000c0 66 66 66 66 86 7c 68 3f 7e 6a bc 74 f3 3b 6e 3f
       0.002989065647125244 0.003690696239471435
0000d0 00 00 00 00 00 00 00 00 d6 ea 98 e0 c1 e1 3c 3f
       0.0 0.00044070227940877277
0000e0 1b 2f dd 24 06 1b 3c 3f bc 70 7c 04 52 f7 38 bf
       0.0004288568496704102 -0.0003809523809523809
0000f0 10 9f 61 57 00 5b 2f 3f 50 fc 18 73 d7 ec 31 3f
       0.00023922328154246013 0.00027351627349853514
000100 8d 54 5d 83 7d b9 32 bf 6a bc 74 93 18 a0 19 3f
       -0.0002857142857142857 9.775304794311523e-05
000110 8d 28 ed 0d be 5b 30 3f bc 70 7c 04 52 f7 28 bf
       0.0002496088981628418 -0.00019047619047619045
000120 2b 87 16 d9 4e 94 2c 3f e1 9f 3f 5a 89 de 31 3f
       0.00021804296970367432 0.0002726636250813802
000130 00 00 00 00 00 00 00 00 f2 8b 25 bf d8 8e 2c 3f
       0.0 0.00021788020928700764
000140 35 5e ba 49 0c 1c 31 3f bc 70 7c 04 52 f7 38 bf
       0.00026107120513916014 -0.0003809523809523809
000150 37 d0 69 03 9d f4 2b 3f 46 94 f6 06 5f d5 30 3f
       0.0002132836977640788 0.0002568585395812988
000160 bc 70 7c 04 52 f7 38 bf 99 e0 c1 3c 31 41 3c 3f
       -0.0003809523809523809 0.0004311318596204122
000170 b5 37 f8 c2 64 73 3b 3f bc 70 7c 04 52 f7 48 bf
       0.00041886529922485354 -0.0007619047619047618
