TOPGRID_MORL/data/rewards/5bus_maxgymsteps_16/training_rewards_seed_42_weights_0.0_0.5426008968609866_0.4573991031390135.npy (npy, 512 bytes, 1 tensors)

array f8 [16, 3]
000000 e6 89 fa 37 02 69 3c 3f 9e ef a7 c6 4b cc 3c 3f
       0.00043350509802500407 0.0004394230842590332
000010 bc 70 7c 04 52 f7 38 bf 67 55 55 ec ce ec ee 3f
       -0.0003809523809523809 0.9664072624097287
000020 dd 8a fd 65 a4 8c ee 3f b3 73 9f 5d 40 6c e2 bf
       0.9546682350158694 -0.5757142857142895
000030 00 00 00 00 00 00 00 00 00 00 00 00 00 00 00 00
       0.0 0.0
000040 00 00 00 00 00 00 00 00 ee ee ee ae 29 51 a0 3f
       0.0 0.03186922321716944
000050 c6 1d 82 bd 60 49 a2 3f 89 c9 ad 8a f2 09 9a bf
       0.03571607888539634 -0.025428571428571387
000060 f8 0c bb 02 64 00 34 3f 6d c5 fe b2 7b 94 35 3f
       0.0003051990667978922 0.00032928485870361326
000070 ec 8c 9b 85 26 35 3f bf f3 37 42 f5 35 22 ea 3f
       -0.0004761904761904762 0.8166761198242497
000080 c2 e6 42 12 b7 36 eb 3f bf 09 26 fa 3b 59 ed bf
       0.8504290920893356 -0.9171428571428847
000090 1e 2f dd a4 8d 39 a2 3f 3b df 4f 8d 4f ff a3 3f
       0.035595346808433556 0.03905724143981933
0000a0 7f 29 d6 6c a4 ea 9a bf 89 88 88 88 08 66 31 3f
       -0.026285714285714242 0.0002654810746510824
0000b0 10 c4 8c 03 c2 ad 34 3f 8d 54 5d 83 7d b9 32 bf
       0.00031553255716959636 -0.0002857142857142857
0000c0 00 00 00 00 00 00 00 00 00 00 00 00 00 00 00 00
       0.0 0.0
0000d0 00 00 00 00 00 00 00 00 84 79 a2 fe 8d 87 35 3f
       0.0 0.00032851425806681316
0000e0 49 9d 80 26 c2 c8 36 3f ec 8c 9b 85 26 35 3f bf
       0.00034765949249267576 -0.0004761904761904762
0000f0 00 00 00 00 00 00 00 00 00 00 00 00 00 00 00 00
       0.0 0.0
000100 00 00 00 00 00 00 00 00 c3 04 0f b7 75 47 e6 3f
       0.0 0.6962231231083468
000110 56 b8 1e 85 a3 f3 e4 3f 8f 19 33 f4 38 b8 df bf
       0.6547410583496098 -0.495619047619038
000120 ac 1c 5a 64 3b 60 1d 3f 47 de 4c 5f e2 9e 28 3f
       0.00011206018924713135 0.00018784058888753256
000130 bc 70 7c 04 52 f7 28 bf fb 37 42 19 bd d8 16 3f
       -0.00019047619047619045 8.715299765268962e-05
000140 21 1f f4 6c 56 b1 25 3f ec 8c 9b 85 26 35 3f bf
       0.00016550235748291015 -0.0004761904761904762
000150 a5 e2 ec c3 67 34 29 3f ab 88 ad b3 34 7c 32 3f
       0.00019229666392008463 0.00028206144968668617
000160 a5 e2 ec c3 67 d8 45 bf 30 96 fc 62 c9 41 21 3f
       -0.0006666666666666666 0.00013166030248006185
000170 25 bc 2a 3d c0 fc 26 3f 8d 54 5d 83 7d b9 32 bf
       0.0001753792444864909 -0.0002857142857142857
