TOPGRID_MORL/data/rewards/5bus_maxgymsteps_16/training_rewards_seed_42_weights_0.4149024062790458_0.0_0.5850975937209543.npy (npy, 512 bytes, 1 tensors)

array f8 [16, 3]
00000000: 10e6 893a 2fd7 bf3f 5c39 b4c8 ff77 c23f
00000010: 0000 0000 0000 0000 6de7 fba9 f1c6 2d3f
00000020: 6de7 fba9 f18c 313f 8d54 5d83 7db9 32bf
00000030: e798 e0e1 d059 ec3f eec6 95ed fb72 ea3f
00000040: 3244 7f27 abe5 edbf 0000 0000 0000 0000
00000050: 0000 0000 0000 0000 0000 0000 0000 0000
00000060: 8c34 a532 261d b53f 691f 3ec3 e84c b73f
00000070: 0000 0000 0000 0000 d906 3aed 9b97 ee3f
00000080: 49f0 60be 9deb ec3f bd66 e043 485b e0bf
00000090: b20f 9f49 7f0b b33f 279d 5bfb 0f95 b13f
000000a0: 7014 ae47 e17a a4bf 5f73 2169 8ace 463f
000000b0: f0a7 c64b 3768 483f 8d54 5d83 7db9 52bf
000000c0: 65f4 b6ac 5595 353f 1c7c 6132 5559 363f
000000d0: a5e2 ecc3 67d8 45bf 3b26 7830 4f27 2d3f
000000e0: bb93 625a 2e33 313f d4fe 0b45 3c16 4cbf
000000f0: 0000 0000 0000 0000 0000 0000 0000 0000
00000100: 0000 0000 0000 0000 a529 1567 1f75 2d3f
00000110: be9c ec79 9139 313f ec8c 9b85 2635 3fbf
00000120: 537e b1d8 c950 e03f e38f 5682 b3ef e03f
00000130: 02ba 490c 022b d7bf 0000 0000 0000 0000
00000140: 0000 0000 0000 0000 0000 0000 0000 0000
00000150: 0000 0000 0000 0000 0000 0000 0000 0000
00000160: 0000 0000 0000 0000 0000 0000 0000 0000
00000170: 0000 0000 0000 0000 0000 0000 0000 0000
0.1243772046963374 0.14428708362579357 0.0 0.00022718143463134767 0.0002678003311157227 -0.0002857142857142857 0.8859638606707251 0.826536144288381
-0.9342857142856984 0.0 0.0 0.0 0.08247603165109946 0.09101729170481367 0.0 0.956006968816122
0.9037617414792375 -0.5111428571428501 0.07439418361087638 0.06868076216379802 -0.039999999999999925 0.0006960082848866781 0.0007448453903198243 -0.0011428571428571427
0.00032933561007181803 0.000341018009185791 -0.0006666666666666666 0.00022242395083109539 0.00026245004336039227 -0.0008571428571428571 0.0 0.0
0.0 0.0002247429688771566 0.00026283075014750165 -0.0004761904761904762 0.5098618728915859 0.5292604013125096 -0.3619999999999949 0.0
0.0 0.0 0.0 0.0 0.0 0.0 0.0 0.0
