TOPGRID_MORL/data/rewards/5bus_maxgymsteps_16/training_rewards_seed_42_weights_0.0_0.3416289592760181_0.6583710407239819.npy (npy, 512 bytes, 1 tensors)

array f8 [16, 3]
00000000: 99e0 c13c 31d1 383f db65 d2b9 b5f5 3b3f
00000010: bc70 7c04 52f7 38bf ff46 28a3 3723 3a3f
00000020: 4219 bd2d 6b66 3b3f a5e2 ecc3 67d8 45bf
00000030: 0000 0000 0000 0000 0000 0000 0000 0000
00000040: 0000 0000 0000 0000 84a4 2935 f8c9 c13f
00000050: ef85 c954 1fd4 c33f c562 4b3b a055 b2bf
00000060: 997d f87c fd56 e93f 0558 39f4 101a e93f
00000070: 6390 fdd8 8ffd e8bf d7f7 5302 f52e f13f
00000080: 451f 1908 a33b f03f 5edf 4f8d 976e e2bf
00000090: bb02 e45e 732a 323f be9c ec79 11ae 343f
000000a0: 8d54 5d83 7db9 32bf 0000 0000 0000 0000
000000b0: 0000 0000 0000 0000 0000 0000 0000 0000
000000c0: 0000 0000 0000 0000 0000 0000 0000 0000
000000d0: 0000 0000 0000 0000 e042 d298 e6eb d23f
000000e0: 29a9 1310 2ef6 d33f 0f37 8941 60e5 d0bf
000000f0: 0dbb 02e4 3e22 3a3f d122 dbf9 7e8a 3a3f
00000100: bc70 7c04 52f7 38bf 489a 5271 b6e9 323f
00000110: f697 dd93 87bf 353f bc70 7c04 52f7 38bf
00000120: 0000 0000 0000 0000 0000 0000 0000 0000
00000130: 0000 0000 0000 0000 e1d0 22db bc6b ad3f
00000140: b16f 3adc 750e ae3f cb6b ef29 d255 b0bf
00000150: bae6 42a8 b6ef ee3f 27cc 1375 810a ee3f
00000160: dc83 f796 f434 e1bf c23c 51ff c690 343f
00000170: 04a0 6485 3532 363f bc70 7c04 52f7 18bf
0.00037867977221806845 0.0004266327540079753 -0.0003809523809523809 0.00039882763226826984 0.0004180919329325358 -0.0006666666666666666 0.0 0.0
0.0 0.13897612186272934 0.15491096153259273 -0.07161904761904754 0.7918689194520311 0.7844319124221789 -0.7809523809523963 1.0739641276299972
1.014559775956472 -0.5760000000000038 0.0002771884600321452 0.00031555105845133466 -0.0002857142857142857 0.0 0.0 0.0
0.0 0.0 0.0 0.2956482403179006 0.3119006306648254 -0.2639999999999966 0.0003987697164217631 0.0004049835205078125
-0.0003809523809523809 0.0002885885636011759 0.00033185062408447265 -0.0003809523809523809 0.0 0.0 0.0 0.05746259856224057
0.05870407403310141 -0.06380952380952391 0.9667619024614489 0.9387824331919362 -0.5377142857142831 0.00031380518277486166 0.00033868605295817055 -9.523809523809523e-05
