TOPGRID_MORL/data/rewards/5bus_maxgymsteps_16/training_rewards_seed_42_weights_0.39005291613499915_0.2120038290985633_0.39794325476643755.npy (npy, 512 bytes, 1 tensors)

array f8 [16, 3]
0.03400178617238999 0.03846690282821656 0.0 0.0002174069881439209 0.0002560084660847982 -0.0004761904761904762 0.00043902166684468586 0.00042827205657958986
-0.0003809523809523809 4.425303141276042e-05 0.00018676635424296062 -0.0002857142857142857 3.953774770100912e-05 0.00018473049799601238 -0.0002857142857142857 0.0
0.0 0.0 0.0 0.0 0.0 0.4980270990629997 0.5487671534220385 -0.4933333333333238
0.2777663168112435 0.3019140784899396 -0.274666666666663 0.1719990583956243 0.18020768639246632 -0.039523809523809385 0.006676574031511943 0.008308960151672363
-0.005142857142857144 0.0003019438982009888 0.00031229248046875 -0.0005714285714285714 0.8663558208048335 0.7990695829073585 -0.7490476190476315 0.14810839069883033
0.15783873504002882 -0.07123809523809517 0.00024887744585673017 0.0002798686981201172 -0.0004761904761904762 0.00034293627738952634 0.0004153122584025065 -0.0005714285714285714
00000000: 5b64 3b9f ae68 a13f a64e 4013 efb1 a33f
00000010: 0000 0000 0000 0000 8716 d9ce f77e 2c3f
00000020: 08f3 44fd 1bc7 303f ec8c 9b85 2635 3fbf
00000030: d294 8ab3 8fc5 3c3f 9790 0f7a 3611 3c3f
00000040: bc70 7c04 52f7 38bf e742 d294 8a33 073f
00000050: 31be 55c4 d67a 283f 8d54 5d83 7db9 32bf
00000060: abaa aaaa aaba 043f d759 1ae5 8636 283f
00000070: 8d54 5d83 7db9 32bf 0000 0000 0000 0000
00000080: 0000 0000 0000 0000 0000 0000 0000 0000
00000090: 0000 0000 0000 0000 0000 0000 0000 0000
000000a0: 0000 0000 0000 0000 5ad4 bf0d addf df3f
000000b0: 2922 2222 808f e13f e75e 2cf9 c592 dfbf
000000c0: 5d9e a85f ecc6 d13f bb3d 546d 8f52 d33f
000000d0: 1f9e a87f 2394 d1bf 8e41 60ad 1004 c63f
000000e0: 5490 c5a3 0b11 c73f 4ddd a2fa 763c a4bf
000000f0: b7ac d531 e558 7b3f faed ebc0 4904 813f
00000100: 21ff c833 ad10 75bf 4a0c 022b c7c9 333f
00000110: bada 8afd 6577 343f 8d54 5d83 7db9 42bf
00000120: b9ca a1d7 2fb9 eb3f 4b18 ba5f fa91 e93f
00000130: 8d99 5eb6 32f8 e7bf 0147 283b 37f5 c23f
00000140: c2fb 8446 0f34 c43f 55e6 46e9 a83c b2bf
00000150: a754 9c7d 784f 303f cf66 d5e7 6a57 323f
00000160: ec8c 9b85 2635 3fbf bc74 9318 8479 363f
00000170: d77e 4591 c837 3b3f 8d54 5d83 7db9 42bf
