TOPGRID_MORL/data/rewards/5bus_maxgymsteps_16/training_rewards_seed_42_weights_0.0_0.4837466366082467_0.5162533633917533.npy (npy, 512 bytes, 1 tensors)

array f8 [16, 3]
000000 aa e2 ec 2b 17 fd c7 3f dd 1b 7c 61 84 e2 c9 3f
       0.18741120953361207 0.20222525367736824
000010 c9 7c 82 46 ed bf c0 bf 1f 85 eb d9 13 81 c6 3f
       -0.13085714285714392 0.1758141340315342
000020 90 59 d0 0e b7 df c4 3f 57 08 ac 1c 5a 64 cb bf
       0.163077242120107 -0.21400000000000105
000030 d3 5c 48 7a 97 63 ab 3f 28 a3 b7 65 4f fe a9 3f
       0.05349419944485025 0.05076835743586222
000040 53 0d b7 eb cf ac b4 bf 3b 26 78 30 ef 12 3d 3f
       -0.08076190476190463 0.0004436334570248922
000050 de 71 8a 8e e4 55 3c 3f a5 e2 ec c3 67 d8 45 bf
       0.00043236570358276365 -0.0006666666666666666
000060 9c c4 20 b0 72 09 1d 3f ad fa 5c 6d c5 65 2c 3f
       0.00011076700687408448 0.00021665606498718262
000070 ec 8c 9b 85 26 35 3f bf d5 78 e9 ba e0 e9 e2 3f
       -0.0004761904761904762 0.5910495424866676
000080 6f 15 b1 75 89 1b e2 3f d5 5f 67 dc 2c 34 e1 bf
       0.56586144434611 -0.5376190476190411
000090 68 d8 15 a0 24 51 a1 3f 98 43 8b 6c d7 ac a3 3f
       0.03382219747702281 0.038428050994873064
0000a0 c7 62 4b 3b a0 55 92 bf 6c 1f 3e 9f 59 73 ef 3f
       -0.017904761904761892 0.9828308210571612
0000b0 e4 1d a7 e8 f6 7c ee 3f f7 3b e3 66 a1 49 ed bf
       0.952754454040527 -0.9152380952381226
0000c0 25 06 81 95 43 d9 3b 3f b6 5f 51 24 72 9e 3b 3f
       0.0004249372482299805 0.0004214314142862956
0000d0 bc 70 7c 04 52 f7 38 bf 00 00 00 00 00 00 00 00
       -0.0003809523809523809 0.0
0000e0 00 00 00 00 00 00 00 00 00 00 00 00 00 00 00 00
       0.0 0.0
0000f0 fc a9 f1 d2 cd 27 30 3f e0 2d 90 a0 f8 a8 32 3f
       0.00024651312828063965 0.0002847296714782715
000100 8d 54 5d 83 7d b9 32 bf 2d b2 9d ef 27 6d 30 3f
       -0.0002857142857142857 0.00025064682960510254
000110 6e 7e d6 0f c4 e3 32 3f 8d 54 5d 83 7d b9 32 bf
       0.00028823410669962565 -0.0002857142857142857
000120 d9 ce f7 53 e3 05 28 3f 9e ca 7c 1a 0a c3 30 3f
       0.00018328094482421875 0.00025576588312784833
000130 bc 70 7c 04 52 f7 28 bf b5 ac d5 19 a0 44 d9 3f
       -0.00019047619047619045 0.3948135616580644
000140 b3 dd b8 92 41 eb dd 3f fa e9 5d fd 5a 9b e7 bf
       0.46748389557202613 -0.7377142857142751
000150 00 00 00 00 00 00 00 00 00 00 00 00 00 00 00 00
       0.0 0.0
000160 00 00 00 00 00 00 00 00 72 af b9 90 34 25 ec 3e
       0.0 1.3420740763346354e-05
000170 3d 76 2a f3 69 66 22 3f bc 70 7c 04 52 f7 18 bf
       0.00014038127263387045 -9.523809523809523e-05
