TOPGRID_MORL/data/rewards/5bus_maxgymsteps_16/training_rewards_seed_42_weights_0.27535131029244203_0.724648689707558_0.0.npy (npy, 512 bytes, 1 tensors)

array f8 [16, 3]
1.0226073373705151 0.9831437738418587 -0.5760000000000038 0.08107119708259895 0.08948238255182903 -0.06371428571428561 0.911511761377255 0.8922893897374468
-1.024571428571415 0.055484977732102064 0.05581541191736855 -0.05761904761904771 0.0 0.0 0.0 0.024779127637545265
0.03000012191136678 -0.01638095238095238 0.00021517972151438396 0.00027139253616333006 -0.00019047619047619045 0.00010875427722930909 0.0002093036651611328 -0.0002857142857142857
0.0 0.0 0.0 0.14268183302879342 0.15979541190465296 -0.14514285714285693 0.00033342417081197104 0.0003467093785603841
-0.0002857142857142857 0.00030726075172424314 0.00032892220815022784 -0.0005714285714285714 0.00028608659903208415 0.0003732669512430827 -0.0006666666666666666 0.0
0.0 0.0 0.00021356948216756186 0.0002597710132598877 -0.00019047619047619045 0.0 0.0 0.0
00000000: fb7e ea82 995c f03f 7456 7dee e975 ef3f
00000010: 5edf 4f8d 976e e2bf 8b09 1efc 14c1 b43f
00000020: 16d6 a042 51e8 b63f a04c 6e55 944f b0bf
00000030: fc1b a1b6 1a2b ed3f 29af 6f7a a28d ec3f
00000040: 6915 a202 a564 f0bf 64ad 8ee9 8668 ac3f
00000050: f881 9871 d693 ac3f 440b 4d6a 3e80 adbf
00000060: 0000 0000 0000 0000 0000 0000 0000 0000
00000070: 0000 0000 0000 0000 b481 4e1b b35f 993f
00000080: 38fb f019 5ab8 9e3f bf9b 031b 2bc6 90bf
00000090: bcbb bbbb 3b34 2c3f ea04 3411 36c9 313f
000000a0: bc70 7c04 52f7 28bf 4c37 8941 6082 1c3f
000000b0: 9e5e 29cb 106f 2b3f 8d54 5d83 7db9 32bf
000000c0: 0000 0000 0000 0000 0000 0000 0000 0000
000000d0: 0000 0000 0000 0000 abc6 4bf7 6543 c23f
000000e0: f035 1712 2d74 c43f dd99 5688 0a94 c2bf
000000f0: c011 cae8 edd9 353f 6fa6 2f71 d1b8 363f
00000100: 8d54 5d83 7db9 32bf 14ae 47e1 fa22 343f
00000110: f3b3 7e20 668e 353f 8d54 5d83 7db9 42bf
00000120: 63c9 2f96 bcbf 323f 1801 2859 6176 383f
00000130: a5e2 ecc3 67d8 45bf 0000 0000 0000 0000
00000140: 0000 0000 0000 0000 0000 0000 0000 0000
00000150: 5371 f6e1 33fe 2b3f 2f6e a301 3c06 313f
00000160: bc70 7c04 52f7 28bf 0000 0000 0000 0000
00000170: 0000 0000 0000 0000 0000 0000 0000 0000
