TOPGRID_MORL/data/rewards/5bus_maxgymsteps_16/training_rewards_seed_42_weights_0.31065356298868385_0.4951093124063301_0.1942371246049861.npy (npy, 512 bytes, 1 tensors)

array f8 [16, 3]
0.00039202388127644854 0.00039755468368530276 -0.00019047619047619045 0.029713481922944388 0.03394980529149374 -0.025142857142857102 0.0002689312299092611 0.0002921723365783691
-0.0003809523809523809 0.0 0.0 0.0 0.0002441890239715576 0.0002843634923299154 -0.0003809523809523809 0.0
0.0 0.0 0.0 0.0 0.0 0.05746259856224057 0.05870407403310141 -0.06380952380952391
0.0013483847181002299 0.0014408137003580732 -0.0030476190476190473 0.0003639816641807556 0.00035775251388549804 -0.0008571428571428571 0.32957893763482554 0.3041398997306822
-0.4540952380952333 0.0003411352038383484 0.00038648891448974607 -0.0005714285714285714 0.00034409393866856894 0.0003652568181355794 -0.0004761904761904762 0.6992933523009208
0.6538547482172631 -0.7308571428571324 0.00031380518277486166 0.00033868605295817055 -9.523809523809523e-05 1.0935198860069106 1.0232531266530365 -0.5757142857142895
00000000: 304f d4bf 11b1 393f 6688 635d dc0d 3a3f
00000010: bc70 7c04 52f7 28bf 14f5 6f04 366d 9e3f
00000020: 0375 dd6e de61 a13f 3754 a094 0cbf 99bf
00000030: 337a 5bd6 ea9f 313f f7e4 61a1 d625 333f
00000040: bc70 7c04 52f7 38bf 0000 0000 0000 0000
00000050: 0000 0000 0000 0000 0000 0000 0000 0000
00000060: 5a64 3bdf cf00 303f 7aec 54e6 d3a2 323f
00000070: bc70 7c04 52f7 38bf 0000 0000 0000 0000
00000080: 0000 0000 0000 0000 0000 0000 0000 0000
00000090: 0000 0000 0000 0000 0000 0000 0000 0000
000000a0: 0000 0000 0000 0000 e1d0 22db bc6b ad3f
000000b0: b16f 3adc 750e ae3f cb6b ef29 d255 b0bf
000000c0: 1111 1111 8917 563f b22b 40ee 359b 573f
000000d0: bc70 7c04 52f7 68bf 4e62 1058 99da 373f
000000e0: 6519 e258 1772 373f d4fe 0b45 3c16 4cbf
000000f0: 51e3 a541 d217 d53f c120 b032 0777 d33f
00000100: e5da 3879 e50f ddbf 8195 438b 4c5b 363f
00000110: 91ed 7c3f 3554 393f 8d54 5d83 7db9 42bf
00000120: 6a03 9d36 f08c 363f db1e aa16 feef 373f
00000130: ec8c 9b85 2635 3fbf 482a ce73 9c60 e63f
00000140: bfad fdca 60ec e43f fed1 d384 2e63 e7bf
00000150: c23c 51ff c690 343f 04a0 6485 3532 363f
00000160: bc70 7c04 52f7 18bf 26ce 3eb5 0e7f f13f
00000170: 9612 a8ab 3e5f f03f b373 9f5d 406c e2bf
