TOPGRID_MORL/data/rewards/5bus_maxgymsteps_16/training_rewards_seed_42_weights_0.0_0.5853133961491193_0.4146866038508808.npy (npy, 512 bytes, 1 tensors)

array f8 [16, 3]
0.00028839858373006183 0.00031071001688639323 -0.0002857142857142857 0.0 0.0 0.0 0.977652036835752 0.9783932790756226
-0.5760000000000038 0.031394080539544414 0.03711621383031209 0.0 0.0003654058774312337 0.000384127140045166 -0.00019047619047619045 0.00025597143173217775
0.0003060116449991862 -0.0002857142857142857 0.0008081479072570801 0.0008280994415283203 -0.0013333333333333333 0.00020821468035380045 0.0002432334264119466 -0.0008571428571428571
0.0003957879741986593 0.00040500637690226235 -0.0006666666666666666 0.00020018911361694336 0.00025090452829996745 -0.0005714285714285714 0.0002512195905049642 0.00026525948842366534
-0.0007619047619047618 0.0 0.0 0.0 1.0960938224097063 1.0318058921813957 -0.38399999999999157 0.0
0.0 0.0 0.1594142796893916 0.17065767825444542 -0.1137142857142867 0.0 0.0 0.0
00000000: 2ace 3e7c 86e6 323f 75dd 6e5c d95c 343f
00000010: 8d54 5d83 7db9 32bf 0000 0000 0000 0000
00000020: 0000 0000 0000 0000 0000 0000 0000 0000
00000030: 9679 a2ec ec48 ef3f 2731 086c ff4e ef3f
00000040: 5edf 4f8d 976e e2bf 7221 698a e212 a03f
00000050: a6e5 1a79 e500 a33f 0000 0000 0000 0000
00000060: b1e4 174b 7ef2 373f dd24 0681 952c 393f
00000070: bc70 7c04 52f7 28bf 7368 91ed 7cc6 303f
00000080: e155 e901 060e 343f 8d54 5d83 7db9 32bf
00000090: dbf9 7e6a 3c7b 4a3f 4625 7502 9a22 4b3f
000000a0: a5e2 ecc3 67d8 55bf 2ace 3e7c 864a 2b3f
000000b0: 891c 3539 8fe1 2f3f d4fe 0b45 3c16 4cbf
000000c0: e3ec c367 38f0 393f 413b ba24 e18a 3a3f
000000d0: a5e2 ecc3 67d8 45bf ac1c 5a64 3b3d 2a3f
000000e0: dbd4 53be 7a71 303f 8d54 5d83 7db9 42bf
000000f0: 35a5 e2ec c376 303f ec54 e6d3 5062 313f
00000100: bc70 7c04 52f7 48bf 0000 0000 0000 0000
00000110: 0000 0000 0000 0000 0000 0000 0000 0000
00000120: a08e 09ad 9989 f13f c0d3 2be5 4682 f03f
00000130: 627e 6abc 7493 d8bf 0000 0000 0000 0000
00000140: 0000 0000 0000 0000 0000 0000 0000 0000
00000150: c002 e4e6 af67 c43f 5302 755d 1cd8 c53f
00000160: bb19 3b22 611c bdbf 0000 0000 0000 0000
00000170: 0000 0000 0000 0000 0000 0000 0000 0000
