TOPGRID_MORL/data/rewards/5bus_maxgymsteps_16/training_rewards_seed_42_weights_0.0_0.3927215604136667_0.6072784395863333.npy (npy, 512 bytes, 1 tensors)

array f8 [16, 3]
0	0x3fe9b897cd19422f	0.8037833219369243
1	0x3fec1012e53d4d9b	0.8769621350606259
2	0xbfe89374bc6a7e62	-0.7679999999999831
3	0x0000000000000000	0.0
4	0x0000000000000000	0.0
5	0x0000000000000000	0.0
6	0x3fa9bcf955810624	0.05026988190412521
7	0x3fa7532b8a0902de	0.04555641231536865
8	0xbf9a09f28aadc989	-0.025428571428571387
9	0x3f3f6ba978d4fdf4	0.0004794396162033081
10	0x3f3d859c779a6b51	0.0004504687309265137
11	0xbf38f752047c70bc	-0.0003809523809523809
12	0x3f37ca66bdc80576	0.00036301620801289876
13	0x3f3a4af1ccefc0a6	0.00040119555791219075
14	0xbf45d867c3ece2a5	-0.0006666666666666666
15	0x0000000000000000	0.0
16	0x0000000000000000	0.0
17	0x0000000000000000	0.0
18	0x3fa0a6194f87d9c5	0.032517233808835345
19	0x3fa08d23d3c36114	0.032326812362670904
20	0xbf9cddf6d52fe25d	-0.0281904761904762
21	0x3f37ce68dfea2798	0.00036325512329737344
22	0x3f36d51c2038cc41	0.0003483956972757975
23	0xbf42b97d835d548d	-0.0005714285714285714
24	0x3ff02b739262a532	1.0106082647492483
25	0x3feef6172c2f8383	0.967540346431733
26	0xbfed93bfa2608d6d	-0.9242857142857425
27	0x3feedfee94c756ba	0.9648354440530149
28	0x3fef19f6b5326177	0.971919397258758
29	0xbfe26e978d4fdf5e	-0.5760000000000038
30	0x3fee45d5fb08dfee	0.9460248854657018
31	0x3fedf3d2c75b1159	0.9360135930697125
32	0xbfe26e978d4fdf5e	-0.5760000000000038
33	0x3f30b545f92c5f93	0.0002549453576405843
34	0x3f337a0530323e88	0.0002971899668375651
35	0xbf28f752047c70bc	-0.00019047619047619045
36	0x0000000000000000	0.0
37	0x0000000000000000	0.0
38	0x0000000000000000	0.0
39	0x3fda5e74cffbe767	0.41201515494286983
40	0x3fd8671c4613634c	0.38129336207707776
41	0xbfd25bde0fcc819f	-0.28685714285713887
42	0x3f3c2d0ad65b7a33	0.0004299308260281881
43	0x3f3c8de654ec79ca	0.000435703976949056
44	0xbf45d867c3ece2a5	-0.0006666666666666666
45	0x0000000000000000	0.0
46	0x0000000000000000	0.0
47	0x0000000000000000	0.0
