TOPGRID_MORL/data/rewards/5bus_maxgymsteps_1024/evaluation_rewards_seed_42_weights_1_0_0.npy (npy, 512 bytes, 1 tensors)

array f8 [16, 3]
0.23357547382364238 51.416666666668675 -0.9166666666666667 0.44946933731053756 193.34920634921522 -1.0 0.06708805821642196 47.107142857142605
-1.0 0.00010767744245135147 0.08333333333333333 -1.0 0.47467769221020684 227.98809523809598 -1.0 9.000865736900065e-05
0.047619047619047616 -1.0 0.3208187964413563 192.00000000000887 -1.0 3.4286173031559285e-05 0.03571428571428571 -1.0
0.07023622310510383 50.33968253968235 -1.0 0.05183039799675779 30.11309523809553 -1.0 0.32148362246528106 194.80000000000888
-1.0 0.3222790363162027 192.0317460317549 -1.0 0.47833451348344336 332.00000000000813 -1.0 0.12562094035120414
100.53174603174816 -1.0 0.00013006584339606247 0.10317460317460317 -1.0 0.379627309234077 218.57142857143745 -1.0
00000000: 1731 9c16 cde5 cd3f 7056 5555 55b5 4940
00000010: 5655 5555 5555 edbf 636d 130a 1bc4 dc3f
00000020: eb2d cbb2 2c2b 6840 0000 0000 0000 f0bf
00000030: 81de fdd7 ae2c b13f b8b6 6ddb b68d 4740
00000040: 0000 0000 0000 f0bf 5407 1960 1c3a 1c3f
00000050: 5555 5555 5555 b53f 0000 0000 0000 f0bf
00000060: fabf 0b8b 1e61 de3f 949e e779 9e7f 6c40
00000070: 0000 0000 0000 f0bf 99c9 82f5 6098 173f
00000080: 1886 6118 8661 a83f 0000 0000 0000 f0bf
00000090: dd17 aa8f 4b88 d43f 3801 0000 0000 6840
000000a0: 0000 0000 0000 f0bf 0472 5cef cff9 013f
000000b0: 9224 4992 2449 a23f 0000 0000 0000 f0bf
000000c0: 8a21 3b49 00fb b13f 9d7a abb7 7a2b 4940
000000d0: 0000 0000 0000 f0bf dc62 ab90 8389 aa3f
000000e0: 21f4 3ccf f31c 3e40 0000 0000 0000 f0bf
000000f0: 1408 2c0b 3093 d43f d29a 9999 9959 6840
00000100: 0000 0000 0000 f0bf f486 4a40 38a0 d43f
00000110: 4805 4110 0401 6840 0000 0000 0000 f0bf
00000120: cc67 fd5c 089d de3f 8f00 0000 00c0 7440
00000130: 0000 0000 0000 f0bf f226 40d3 5814 c03f
00000140: b608 8220 0822 5940 0000 0000 0000 f0bf
00000150: 5c84 6116 490c 213f 9aa6 699a a669 ba3f
00000160: 0000 0000 0000 f0bf b50b 7557 d04b d83f
00000170: 5d4a 9224 4952 6b40 0000 0000 0000 f0bf
