TOPGRID_MORL/data/rewards/5bus_maxgymsteps_1024/generate_evaluation_rewards_weights_0_1_0.npy (npy, 1088 bytes, 1 tensors)

array f8 [40, 3]
00000000: 31bb 5d86 10b3 d93f f33c 287c da21 7240
00000010: 3333 3333 3333 30c0 1c5c 6c70 b1c1 d23f
00000020: 6666 a2cd bbba 6c40 bcbb bbbb bb3b 33c0
00000030: cff3 3ccf f33c c33f cdcc 8cb6 7d96 5c40
00000040: abaa aaaa aa2a 36c0 0775 5007 7550 da3f
00000050: 4444 3d26 4180 7340 2222 2222 2222 2fc0
00000060: af49 f059 f49a d93f 8988 15ee ca4d 7340
00000070: bcbb bbbb bbbb 32c0 e4da 5838 30ae cd3f
00000080: 0627 3c55 b39a 6840 abaa aaaa aa2a 33c0
00000090: 35fc 6d8a 51c3 c33f abaa 4a57 f2bd 5d40
000000a0: 3333 3333 3333 3bc0 b37d 305d 28db d63f
000000b0: 3aa8 17cd 19ef 7040 9a99 9999 9919 35c0
000000c0: ccbf fccb bffc da3f 9a99 90da e88d 7440
000000d0: dedd dddd dddd 30c0 50a9 3fa5 fe94 c23f
000000e0: 8988 a464 1231 6440 8988 8888 8888 36c0
000000f0: 6dce e66c cee6 d53f dedd 8f7a e9e5 6f40
00000100: cdcc cccc cccc 33c0 ec69 4941 bf9e db3f
00000110: efee bca8 83bf 7540 1111 1111 1111 2dc0
00000120: 4e82 cfa2 d724 da3f 6666 5b0d eb2f 7440
00000130: abaa aaaa aa2a 31c0 7984 4778 8447 ce3f
00000140: 7b9e 61a7 ec1e 6940 7777 7777 7777 36c0
00000150: 3277 c8dc 2173 d73f 6666 05e4 aff8 7240
00000160: 1111 1111 1111 37c0 0f99 3b64 ee90 c73f
00000170: abaa 0a6c 6924 6540 dedd dddd dddd 2fc0
00000180: a4f1 c4f9 461a d23f cdcc deae e76d 6c40
00000190: 7777 7777 7777 34c0 1501 bc6a 5611 ce3f
000001a0: abaa 34b8 3c05 6840 0000 0000 0080 38c0
000001b0: 2cbe e22b bee2 de3f 9a99 7961 f504 7840
000001c0: 5555 5555 5555 2cc0 a6c7 cf51 727a e33f
000001d0: 1111 ed4d b71d 7d40 cdcc cccc cccc 2cc0
000001e0: 1d76 0c72 cb61 de3f 5555 26fe a76e 7740
000001f0: 0000 0000 0080 34c0 0a4b 5b5f a0b0 d93f
00000200: 4444 4064 89b0 7440 4444 4444 44c4 37c0
00000210: bcbb bbbb bbbb d23f 4444 64c4 7f38 6940
00000220: 1111 1111 1191 36c0 8057 cd2a 0278 d23f
00000230: 2222 0a0c 06cb 6c40 abaa aaaa aa2a 38c0
00000240: b112 2bb1 122b d63f 0000 1b51 d9f4 7140
00000250: efee eeee ee6e 38c0 4a41 bf9e 9614 d73f
00000260: 4444 e0e9 68e5 7240 5555 5555 55d5 37c0
00000270: 6a9a a669 9aa6 d63f 8988 10ad fe28 7240
00000280: dedd dddd dddd 25c0 4444 4444 4444 e33f
00000290: 4444 82ba b54b 7b40 1111 1111 1111 38c0
000002a0: f72c 7a4d 82cf d23f efee 52e9 546f 6d40
000002b0: dedd dddd dddd 31c0 fe36 c5a8 e16f d73f
000002c0: 0000 6b2a 2830 7340 abaa aaaa aaaa 2dc0
000002d0: da4b 682f a1bd df3f 0000 49e4 8d8f 7940
000002e0: 3333 3333 3333 2cc0 755d d775 5dd7 de3f
000002f0: 1111 565b b234 7840 5555 5555 55d5 33c0
00000300: e438 8ee3 388e cd3f dedd 3330 739e 6840
00000310: dedd dddd dddd 37c0 f98a aff8 8aaf de3f
00000320: 4444 ea34 0a8c 7640 1111 1111 1111 33c0
00000330: 9224 4992 2449 d23f 7777 bd00 682a 6e40
00000340: 5555 5555 55d5 37c0 23de 8c78 33e2 de3f
00000350: 4444 a1ad 2327 7740 9a99 9999 9919 30c0
00000360: 3b57 1e90 ac73 de3f 8988 3262 d13d 7740
00000370: bcbb bbbb bbbb 37c0 35b8 d8e0 6283 da3f
00000380: 7777 dde1 5af5 7240 0000 0000 0080 34c0
00000390: fff2 2fff f22f da3f efee 43b6 7146 7240
000003a0: 2222 2222 2222 35c0 c59b 116f 46bc df3f
000003b0: cdcc 3d1e 0cf4 7740 cdcc cccc cccc 25c0
0.4015542328042328 290.1158410617638 -16.2 0.29307208994709 229.8354252025485 -19.233333333333334 0.15029761904761904 114.35142291784287
-22.166666666666668 0.41116071428571427 312.0159056084851 -15.566666666666666 0.40008267195767194 308.86204346095525 -18.733333333333334 0.2318783068783069
196.8343912291386 -19.166666666666668 0.15439814814814815 118.96791631976764 -27.2 0.3571263227513228 270.94379910698956 -21.1
0.4216765873015873 328.869349064678 -16.866666666666667 0.14517195767195767 161.53349525580805 -22.533333333333335 0.3422123015873016 255.18475082491835
-19.8 0.43156415343915344 347.9696433429917 -14.533333333333333 0.4084986772486773 322.9948857851326 -17.166666666666668 0.2365575396825397
200.9663884073851 -22.466666666666665 0.3664021164021164 303.5429420672357 -23.066666666666666 0.18411044973544974 169.1378689010938 -15.933333333333334
0.28285383597883595 227.43453162685037 -20.466666666666665 0.23490410052910052 192.16366205488643 -24.5 0.4825892857142857 384.309907412529
-14.166666666666666 0.6086970899470898 465.8572520504395 -14.4 0.47471891534391536 374.91601386045414 -20.5 0.4014054232804233
331.0335428724686 -23.766666666666666 0.29270833333333335 201.76559657653172 -22.566666666666666 0.28857473544973544 230.3444881627957 -24.166666666666668
0.34637896825396824 287.30305586382747 -24.433333333333334 0.3606316137566138 302.33811366657415 -23.833333333333332 0.3539186507936508 290.56217676599823
-10.933333333333334 0.6020833333333333 436.731867321829 -24.066666666666666 0.29391534391534385 235.47911516378323 -17.866666666666667 0.3662037037037037
307.00980607792735 -14.833333333333334 0.49594907407407407 408.97214153781533 -14.1 0.4818948412698412 387.2935441362361 -19.833333333333332
0.2309027777777778 196.9515610707303 -23.866666666666667 0.47946428571428573 360.7524918700258 -19.066666666666666 0.2857142857142857 241.32519566540915
-23.833333333333332 0.4825562169312169 370.4462105082969 -16.1 0.4758101851851852 371.86361903895937 -23.733333333333334 0.41426917989417983
303.3346880579988 -20.5 0.4091765873015873 292.402761712422 -21.133333333333333 0.49586640211640215 383.25295852795244 -10.9
