TOPGRID_MORL/data/rewards/5bus_maxgymsteps_128/training_rewards_seed_42_weights_0.23707473937555434_0.3504509037135881_0.4124743569108576.npy (npy, 3200 bytes, 1 tensors)

array f8 [128, 3]
00000000: dd4a f48e 917e 323f 8613 ab19 2c2d 363f
00000010: bc70 7c04 52f7 38bf cdd0 676e 7868 ee3f
00000020: 1733 0e58 8a40 f03f b373 9f5d 406c e2bf
00000030: 7b23 13c1 c454 2d3f 6051 2472 d4da 323f
00000040: 8d54 5d83 7db9 32bf 9ee0 b2e5 ad9a 2f3f
00000050: 6b9a 779c a2ba 353f 8d54 5d83 7db9 42bf
00000060: 0000 0000 0000 0000 0000 0000 0000 0000
00000070: 0000 0000 0000 0000 0000 0000 0000 0000
00000080: 0000 0000 0000 0000 0000 0000 0000 0000
00000090: 0b71 24f0 353d bb3f 5c39 b4c8 ff77 c23f
000000a0: 0000 0000 0000 0000 f858 d309 2d31 293f
000000b0: e88f 56a2 d95d 323f 8d54 5d83 7db9 32bf
000000c0: 0000 0000 0000 0000 0000 0000 0000 0000
000000d0: 0000 0000 0000 0000 dfba e766 c9d0 c03f
000000e0: b197 933d 9686 c43f 1cb8 1e85 eb51 c8bf
000000f0: 3b40 c7ba 88dc e73f f410 ec65 703c ea3f
00000100: 10c0 caa1 45b6 d3bf 0907 2a7b 6b4d aa3f
00000110: 6c84 327a b552 af3f 723e 809d 71b3 b0bf
00000120: 8736 3b4c 6380 343f 431c ebe2 3651 373f
00000130: 8d54 5d83 7db9 42bf 7d5e 4872 12a6 2f3f
00000140: 5814 891c 35c3 343f ec8c 9b85 2635 3fbf
00000150: 27eb e3a8 2f29 2f3f bc05 1214 3f6e 343f
00000160: ec8c 9b85 2635 3fbf 8319 4527 bd97 ec3f
00000170: e8a5 9b24 5cd0 ee3f bafc 1ba1 8cde e6bf
00000180: d953 ed07 1801 b13f 5c89 668b 76db b53f
00000190: 0000 0000 0000 0000 309e 521b 01ff 293f
000001a0: 39d6 c56d 34d4 313f 8d54 5d83 7db9 32bf
000001b0: d9f6 27b2 0cfe ea3f f937 4299 2b2d ed3f
000001c0: 1607 7550 0775 f0bf a05f 6cef dc52 e33f
000001d0: 26cf 414a 706e e93f 627e 6abc 7493 e8bf
000001e0: a52f c66d 49df 303f 59cd 6079 7df9 343f
000001f0: ec8c 9b85 2635 3fbf eecd 156a 5163 303f
00000200: 2834 3661 e85c 343f bc70 7c04 52f7 48bf
00000210: 0000 0000 0000 0000 0000 0000 0000 0000
00000220: 0000 0000 0000 0000 e454 625e c3c7 eb3f
00000230: 7b95 430b 46e1 ef3f 5edf 4f8d 976e e2bf
00000240: 6cd3 385e 3c33 303f 0f9c 33a2 b4d1 363f
00000250: 8d54 5d83 7db9 32bf 94d4 f2e0 ebc0 963f
00000260: 855d 0172 fbc3 9e3f a7a9 34e4 dc67 97bf
00000270: 9062 1b4a ecf8 173f 4522 474d cebb 2f3f
00000280: ec8c 9b85 2635 3fbf 790a 4fc8 d366 2d3f
00000290: 3d2c d49a e653 323f bc70 7c04 52f7 48bf
000002a0: e5df 2726 cf8c 273f 2981 ba6e 374a 2c3f
000002b0: d4fe 0b45 3c16 4cbf 0000 0000 0000 0000
000002c0: 0000 0000 0000 0000 0000 0000 0000 0000
000002d0: 0000 0000 0000 0000 0000 0000 0000 0000
000002e0: 0000 0000 0000 0000 42f5 3af0 de33 e53f
000002f0: 8eb9 6be9 c71d eb3f 627e 6abc 7493 e8bf
00000300: 259e f7dc 746c e33f 4163 13e6 7b72 e93f
00000310: 627e 6abc 7493 e8bf 929a 8d55 78ed c43f
00000320: 6435 8365 e435 cb3f a554 5d83 7db9 c2bf
00000330: f21e 8524 136d e53f d1ac fabc 690d e83f
00000340: d33b 1e4a 08eb e6bf a5a5 5ad3 99ea a33f
00000350: f1f7 780e b682 a53f fda9 f1d2 4d62 a0bf
00000360: 7506 181b 8b6b 373f 933a 014d 8447 3c3f
00000370: 8d54 5d83 7db9 42bf 0000 0000 0000 0000
00000380: 0000 0000 0000 0000 0000 0000 0000 0000
00000390: bc9c dcd3 2449 233f 8479 a2fe 8da0 323f
000003a0: bc70 7c04 52f7 28bf 0000 0000 0000 0000
000003b0: 0000 0000 0000 0000 0000 0000 0000 0000
000003c0: 0e60 9fd4 d502 973f 6254 5227 5217 a03f
000003d0: 0000 0000 0000 0000 81a5 110d 1100 e43f
000003e0: f25d 7053 649b e93f 9225 3936 d480 e7bf
000003f0: de1e f6fc 4a51 eb3f 3790 a0d8 0121 ef3f
00000400: 5edf 4f8d 976e e2bf a77e 441a 05a4 a33f
00000410: 5fe2 a26d 29c2 a83f 7adb f567 560a 86bf
00000420: 54d3 d51e 5611 2f3f 5a89 668b 91c6 343f
00000430: bc70 7c04 52f7 18bf 62bb 272a ec19 d33f
00000440: 4fbf 7d1d b48c d43f 00cc 91e9 652b d3bf
00000450: 191b 5a02 629d 4a3f 482b d16c b1d5 4d3f
00000460: ec8c 9b85 2635 4fbf 82c5 a54e 0f20 c33f
00000470: 155b 6769 9081 c53f cc81 0f21 6d61 b9bf
00000480: a0ae 18c1 7550 423f 41cc 3820 1ce3 463f
00000490: 8d54 5d83 7db9 52bf 3e88 1d1b c4f6 d93f
000004a0: aa2b 40ee 28e2 dc3f 7588 c782 03dc e0bf
000004b0: 4657 0b7e 2bfa 2e3f e63f a4df bec6 343f
000004c0: bc70 7c04 52f7 38bf eaea 3423 fa36 9f3f
000004d0: cf66 d5e7 7891 a53f 461f ffc8 33ad a0bf
000004e0: d4b0 755e e002 2f3f 17b7 d100 de0f 343f
000004f0: bc70 7c04 52f7 18bf 0000 0000 0000 0000
00000500: 0000 0000 0000 0000 0000 0000 0000 0000
00000510: eda7 6c8e b140 383f 7708 f672 b208 3d3f
00000520: bc70 7c04 52f7 38bf 9ad0 192e a4cb 393f
00000530: 01b9 d75c 4836 3d3f 8d54 5d83 7db9 42bf
00000540: 75dc 5119 9031 a33f b20c 71ac e1d0 a43f
00000550: 1a38 8113 3881 a3bf 82e5 9501 9e73 443f
00000560: 4850 fc18 7342 493f ec8c 9b85 2635 4fbf
00000570: e792 763f 4454 903f a2dc 9059 6474 953f
00000580: 7e14 ae47 e17a a4bf 4311 51af 9199 333f
00000590: e099 e3ef f196 363f 8d54 5d83 7db9 42bf
000005a0: 15b1 d171 7d9b 5e3f 6e7e d60f 24ab 613f
000005b0: 1eff c833 ad10 75bf fce4 eab8 8d73 353f
000005c0: e10b 93a9 8227 383f bc70 7c04 52f7 48bf
000005d0: dd9f 533f 7039 2a3f a95d 269d 5bef 313f
000005e0: bc70 7c04 52f7 38bf bdef 81c8 f02e 943f
000005f0: 2ba6 e51a ed2d 9a3f a6b7 65ad 8e09 9ebf
00000600: 46e5 3271 31ae 313f 82bd 9cec 79a7 343f
00000610: bc70 7c04 52f7 48bf 4b04 a5fa 836b 313f
00000620: cc5d 4bc8 0730 353f a5e2 ecc3 67d8 45bf
00000630: b907 c007 60b7 2d3f 637f d93d 79d0 343f
00000640: 8d54 5d83 7db9 32bf 848c 1447 4c4a 303f
00000650: a1f8 31e6 ae3f 353f 8d54 5d83 7db9 42bf
00000660: 4908 20f6 c0ab 273f 269d 5bfb 15f3 303f
00000670: 8d54 5d83 7db9 42bf c444 084f fbe0 e83f
00000680: 244a 7b23 d760 ec3f 6509 5dc6 8e48 f0bf
00000690: 1db7 df59 e94a b03f 279d 5bfb 0f95 b13f
000006a0: 7014 ae47 e17a a4bf 7080 e3b5 c782 433f
000006b0: f0a7 c64b 3768 483f 8d54 5d83 7db9 52bf
000006c0: 0db0 83f8 4529 4d3f f9a0 67b3 ea3d 523f
000006d0: d4fe 0b45 3c16 5cbf 08ac 89fe 4a92 953f
000006e0: 9cc7 4e65 a28b 9b3f 1cb1 e82e 5f30 b0bf
000006f0: 2e0e 7ebb 26b7 e53f 2d59 612d bff6 e93f
00000700: eaa3 ea1a eccb f5bf d362 2314 29ae ee3f
00000710: 4a76 2a93 7aa7 f03f 627e 6abc 7493 d8bf
00000720: 74bc 57d3 37bc 2a3f 52dd 4931 2d36 323f
00000730: 8d54 5d83 7db9 32bf 0000 0000 0000 0000
00000740: 0000 0000 0000 0000 0000 0000 0000 0000
00000750: cda5 4d28 1f71 e43f b86e 378e dc6c e63f
00000760: 047a d9ca e03f e1bf 38fe 3fe8 2335 cd3f
00000770: 3608 ac1c 98b9 d13f fd11 44c6 4f4e cdbf
00000780: d225 2f52 9c7b b03f beef ccf1 3729 b63f
00000790: d750 035e 3c55 b6bf 6062 eed8 6e20 273f
000007a0: 7a80 0197 dab2 2e3f ec8c 9b85 2635 3fbf
000007b0: 0000 0000 0000 0000 0000 0000 0000 0000
000007c0: 0000 0000 0000 0000 31fd 1209 dda2 2f3f
000007d0: d77e 4591 c80d 353f bc70 7c04 52f7 28bf
000007e0: 9c68 1e47 6bbc 2d3f 4366 413b ba4a 333f
000007f0: ec8c 9b85 2635 3fbf a4cb ef9f 35c2 d33f
0.00028220227882617776 0.0003383858362833659 -0.0003809523809523809 0.9502527386053089 1.0157569350878413 -0.5757142857142895 0.00022377874169013018 0.0002877014795939128
-0.0002857142857142857 0.0002411210324220246 0.00033155889511108397 -0.0005714285714285714 0.0 0.0 0.0 0.0
0.0 0.0 0.10640275109148349 0.14428708362579357 0.0 0.00019220042023588408 0.0002802521069844564 -0.0002857142857142857
0.0 0.0 0.0 0.13137166523616536 0.16035726553599042 -0.1899999999999985 0.7456706665052545 0.8198778143564867
-0.3079999999999936 0.051371916565598204 0.06117789379755653 -0.06523809523809534 0.0003128282953469359 0.0003557929039001465 -0.0005714285714285714 0.00024146056343065164
0.0003168110529581706 -0.0004761904761904762 0.00023773867400919102 0.0003117469787597656 -0.0004761904761904762 0.8935228125563274 0.9629345622062688 -0.7146666666666512
0.06642294114619975 0.08537999060948692 0.0 0.0001983345843303715 0.00027204780578613284 -0.0002857142857142857 0.8435119132625132 0.9117639535268146
-1.0285714285714156 0.6038651157605166 0.7947312784512846 -0.7679999999999831 0.00025744955726091984 0.0003200465520222982 -0.0004761904761904762 0.00025006044059880286
0.00031071351369222006 -0.0007619047619047618 0.0 0.0 0.0 0.8681351512374502 0.9962492198944085 -0.5760000000000038
0.00024719451741655215 0.00034819278717041017 -0.0002857142857142857 0.022220311741609836 0.03004448779424031 -0.022857142857142822 9.144727894339955e-05 0.00024210828145345052
-0.0004761904761904762 0.00022431693301257544 0.0002796590805053711 -0.0007619047619047618 0.00017967251467587635 0.00021583487192789713 -0.0008571428571428571 0.0
0.0 0.0 0.0 0.0 0.0 0.6625818912504331 0.8473853644371034 -0.7679999999999831
0.6069893184439407 0.7952250951449075 -0.7679999999999831 0.1634970109691563 0.21258215862909957 -0.14628571428571494 0.6695647919923131 0.7516373339653005
-0.7161904761904857 0.03889923768049223 0.04201287199656168 -0.03200000000000001 0.00035736223352964637 0.0004315088272094727 -0.0005714285714285714 0.0
0.0 0.0 0.00014713835292321463 0.00028422800699869793 -0.00019047619047619045 0.0 0.0 0.0
0.02247175321812738 0.03142792444229127 0.0 0.6250081305744716 0.800218737570445 -0.7344761904761745 0.8536734524395475 0.9727792006492625
-0.5760000000000038 0.038360747772683106 0.04835633719762166 -0.01076190476190474 0.00023702789568926885 0.00031701138814290363 -9.523809523809523e-05 0.29845718495101015
0.32108786468505895 -0.2995238095238051 0.0008122185287938482 0.0009104839642842611 -0.0009523809523809524 0.1494158872624603 0.16801648279825857 -0.09914285714285781
0.0005589079830250095 0.000698460324605306 -0.0011428571428571427 0.4056864037321509 0.45130370394388797 -0.5268571428571379 0.0002363374797115741 0.0003170219421386719
-0.0003809523809523809 0.03048315849194242 0.042125490474700926 -0.032571428571428515 0.00023659695510092635 0.00030612154006958006 -9.523809523809523e-05 0.0
0.0 0.0 0.0003700669753238229 0.00044302326838175455 -0.0003809523809523809 0.0003936076956059326 0.0004457403818766276 -0.0005714285714285714
0.03748750981406427 0.04065613965988159 -0.03809523809523814 0.0006241342081658027 0.0007708608627319336 -0.0009523809523809524 0.01594645154331689 0.020951812712351477
-0.04000000000000002 0.00029907042273104675 0.00034469038645426435 -0.0005714285714285714 0.001868126396654073 0.0021568016370137532 -0.005142857142857142 0.00032732210176396304
0.0003685659408569336 -0.0007619047619047618 0.00020007605750227325 0.00027366625467936196 -0.0003809523809523809 0.01971031402398159 0.02556581951777141 -0.029333333333333343
0.0002697821339086758 0.00031515814463297525 -0.0007619047619047618 0.00026580783982771823 0.0003232974052429199 -0.0006666666666666666 0.00022671744579843918 0.0003176017761230469
-0.0002857142857142857 0.00024856912848942475 0.0003242303848266602 -0.0005714285714285714 0.0001805947350135859 0.0002586296717325846 -0.0005714285714285714 0.7774635833358379
0.8868213360786439 -1.017714285714271 0.06364305919825282 0.06868076216379802 -0.039999999999999925 0.0005954241894663547 0.0007448453903198243 -0.0011428571428571427
0.0008899299291704757 0.0011133949279785156 -0.0017142857142857142 0.021065875802758455 0.026899850304921466 -0.06323809523809526 0.6786073362313283 0.8113704572995509
-1.3622857142856852 0.9587598222088566 1.0408883808771798 -0.38399999999999157 0.00020397359337162894 0.00027788737614949544 -0.0002857142857142857 0.0
0.0 0.0 0.6388088023351713 0.7007887628237404 -0.5390476190476083 0.2281842121155806 0.27695277023315457 -0.2289523809523785
0.06438614851426586 0.08656644490559892 -0.08723809523809521 0.00017644265286944055 0.00023421209653218586 -0.0004761904761904762 0.0 0.0
0.0 0.00024136493860813784 0.0003212561289469401 -0.00019047619047619045 0.0002268677667956507 0.0002943710962931315 -0.0004761904761904762 0.3087286054498526
