TOPGRID_MORL/data/rewards/5bus_maxgymsteps_128/training_rewards_seed_42_weights_0.386448848419925_0.0_0.613551151580075.npy (npy, 3200 bytes, 1 tensors)

array f8 [128, 3]
0	0x3fa6c84aa15c5761	0.044496853062965476
1	0x3faa156dcdc177c0	0.05094473969141644
2	0xbfa5a6791fe3e9b8	-0.042285714285714204
3	0x3f7728d795684900	0.005654184459233713
4	0x3f7d0c71807a5577	0.0070919450441996245
5	0xbf863c450bfed469	-0.010857142857142859
6	0x0000000000000000	0.0
7	0x0000000000000000	0.0
8	0x0000000000000000	0.0
9	0x3fc0d0c966e7badf	0.13137166523616536
10	0x3fc486963d9397b1	0.16035726553599042
11	0xbfc851eb851eb81c	-0.1899999999999985
12	0x3f2c3fee7a819987	0.00021552835574141177
13	0x3f321116f0068db9	0.00027567682266235353
14	0xbf45d867c3ece2a5	-0.0006666666666666666
15	0x3f2c74d9307f00d2	0.00021710540045028495
16	0x3f323337b4a2339c	0.00027771100997924804
17	0xbf45d867c3ece2a5	-0.0006666666666666666
18	0x0000000000000000	0.0
19	0x0000000000000000	0.0
20	0x0000000000000000	0.0
21	0x3fa0012cc69762c7	0.031258963815792344
22	0x3fa3da135ee402bd	0.03877316029866538
23	0xbf90f819bf0c94a0	-0.01657142857142857
24	0x3f8589bb82a40ca2	0.010516610073415148
25	0x3f8a3301d8f39351	0.012792601044972736
26	0xbf8a86c724c437cb	-0.012952380952380957
27	0x3f31aeaf96a6c0e3	0.00026981150463269
28	0x3f3a3e61363427de	0.0004004466374715169
29	0xbf45d867c3ece2a5	-0.0006666666666666666
30	0x0000000000000000	0.0
31	0x0000000000000000	0.0
32	0x0000000000000000	0.0
33	0x3fec8cdab1679d89	0.8921941246925807
34	0x3ff02733ab66895b	1.0095707602818809
35	0xbfe26e978d4fdf5e	-0.5760000000000038
36	0x3f309df8c41c82f2	0.00025355647459161725
37	0x3f34c0962fc962fd	0.00031665484110514325
38	0xbf3f3526859b8cec	-0.0004761904761904762
39	0x3f30fd4e2203638a	0.0002592387918532382
40	0x3f3554237fa89e61	0.00032544962565104167
41	0xbf42b97d835d548d	-0.0005714285714285714
42	0x0000000000000000	0.0
43	0x0000000000000000	0.0
44	0x0000000000000000	0.0
45	0x3f9acd70def65a73	0.026174319847621818
46	0x3fa29a1d83c131d6	0.03633205636342367
47	0xbf931d5acb6f464b	-0.018666666666666647
48	0x0000000000000000	0.0
49	0x0000000000000000	0.0
50	0x0000000000000000	0.0
51	0x0000000000000000	0.0
52	0x0000000000000000	0.0
53	0x0000000000000000	0.0
54	0x3fa0103c9f47a434	0.03137387699445818
55	0x3fa1f1f9bd5f29ea	0.035049251906077064
56	0xbf9c7a198d1df09a	-0.02780952380952382
57	0x0000000000000000	0.0
58	0x0000000000000000	0.0
59	0x0000000000000000	0.0
60	0x3f9b56f2b0d9974f	0.02669886783987546
61	0x3fa2ebad18fc5045	0.036954316425323465
62	0xbf9d41d41d41d40f	-0.028571428571428522
63	0x3f27a14e315344ad	0.0001802833509488058
64	0x3f307f26e978d4fe	0.00025171947479248047
65	0xbf38f752047c70bc	-0.0003809523809523809
66	0x3f2fd6cadea6f489	0.00024291254460520977
67	0x3f354eee86136342	0.00032513926823933917
68	0xbf28f752047c70bc	-0.00019047619047619045
69	0x0000000000000000	0.0
70	0x0000000000000000	0.0
71	0x0000000000000000	0.0
72	0x3f2e9f90a234d5f8	0.00023363724276641274
73	0x3f338724ba3b4166	0.0002979721705118815
74	0xbf32b97d835d548d	-0.0002857142857142857
75	0x3fea777e02c078e0	0.8270864537951432
76	0x3fee5574ebf258b3	0.9479317291577644
77	0xbfe26c405d9f73b3	-0.5757142857142895
78	0x3f109ccd5089c78b	6.337168827899428e-05
79	0x3f2fdde955e124ba	0.0002431247075398763
80	0xbf28f752047c70bc	-0.00019047619047619045
81	0x3f288fdfb0959145	0.00018739324176942677
82	0x3f31f383c131d5ad	0.00027391401926676434
83	0x0000000000000000	0.0
84	0x3f2ceea4ef079852	0.0002207352004141594
85	0x3f32c46ac4e18d96	0.0002863655726114909
86	0xbf38f752047c70bc	-0.0003809523809523809
87	0x0000000000000000	0.0
88	0x0000000000000000	0.0
89	0x0000000000000000	0.0
90	0x3fc4bf4a839e02af	0.1620877401983498
91	0x3fc784a3bc7bf8ef	0.18373533919652327
92	0xbfc31d5acb6f4645	-0.149333333333333
93	0x3fcd19da52d609ad	0.2273514656518051
94	0x3fcfa07133d07c8b	0.24708380727767962
95	0xbfc7cbba2c469b45	-0.1859047619047606
96	0x3f60f5e6a293c87e	0.0020703796950494726
97	0x3f62c567525460ab	0.0022913949966430667
98	0xbf6767dce434a9b0	-0.0028571428571428567
99	0x3fdb691cd35367f6	0.4282905639389577
100	0x3fe080ea8263ab5c	0.5157368227640791
101	0xbfe820c49ba5e3a6	-0.7540000000000091
102	0x3f24ac125f210407	0.00015771602881112253
103	0x3f2d064a462d9a25	0.00022143990198771158
104	0xbf18f752047c70bc	-9.523809523809523e-05
105	0x3f24e20ae539c82a	0.00015932448387762202
106	0x3f2d2b224515fb5c	0.00022253793080647788
107	0xbf38f752047c70bc	-0.0003809523809523809
108	0x3f062f211f1bedf9	4.231281117303069e-05
109	0x3f28c901807a5578	0.0001890959103902181
110	0xbf3f3526859b8cec	-0.0004761904761904762
111	0x3fa3a8c23fbd64ef	0.03839690235208503
112	0x3fa7573ad3149dd6	0.04558738543192546
113	0xbfb3e5155b9329cf	-0.07771428571428561
114	0x3f37ce7f4c2b0663	0.00036326034402742717
115	0x3f3b46b80c03d2ac	0.0004162024815877279
116	0xbf42b97d835d548d	-0.0005714285714285714
117	0x0000000000000000	0.0
118	0x0000000000000000	0.0
119	0x0000000000000000	0.0
120	0x3f24f3e1464eb146	0.0001598560803847215
121	0x3f36ede726a39123	0.0003498734792073568
122	0xbf38f752047c70bc	-0.0003809523809523809
123	0x3f2776bb62d36fd9	0.00017901456286650746
124	0x3f350b0e56041893	0.0003210935592651367
125	0xbf45d867c3ece2a5	-0.0006666666666666666
126	0x0000000000000000	0.0
127	0x0000000000000000	0.0
128	0x0000000000000000	0.0
129	0x3f9702d5d49f600e	0.02247175321812738
130	0x3fa0175227525462	0.03142792444229127
131	0x0000000000000000	0.0
132	0x3fe8c22040411919	0.7736970190970026
133	0x3fec9f929ec56d61	0.8944790936470036
134	0xbfe1a09f28aadc96	-0.5508571428571425
135	0x3f32fd9c16d330d5	0.00028977452059276754
136	0x3f37a924515fb5ba	0.00036103378931681316
137	0xbf28f752047c70bc	-0.00019047619047619045
138	0x0000000000000000	0.0
139	0x0000000000000000	0.0
140	0x0000000000000000	0.0
141	0x3fedfb0f5a0dd32a	0.9368969687335256
142	0x3ff061b4eca57a81	1.0238541835784931
143	0xbfe26e978d4fdf5e	-0.5760000000000038
144	0x3fa0715250d9fc31	0.032114574784820944
145	0x3fa6d8f7f1ccefc3	0.04462408854166668
146	0xbf97cbba2c469b63	-0.02323809523809518
147	0x3fe764a4b838bd3d	0.7310355756834849
148	0x3fec272a057ed6e2	0.8797807795842483
149	0xbff1510ad33c8fe0	-1.0822857142857103
150	0x3fad1210b66a9611	0.056778452174779066
151	0x3fafb3170022f3db	0.06191322209040325
152	0xbfa2b97d835d5484	-0.036571428571428505
153	0x0000000000000000	0.0
154	0x0000000000000000	0.0
155	0x0000000000000000	0.0
156	0x3f92ec4471941ea3	0.01847941344479288
157	0x3f9493e1b68b897b	0.020095373884836825
158	0xbf918de5ab277f46	-0.017142857142857147
159	0x3f336f3b08028ea4	0.0002965468520505865
160	0x3f38b74839e3dfc7	0.0003771354039510091
161	0xbf42b97d835d548d	-0.0005714285714285714
162	0x3f962c9f056de07b	0.021654591280338736
163	0x3f991c9e83585648	0.024523236052195224
164	0xbf93e5155b9329d8	-0.019428571428571434
165	0x3f93889e8b890529	0.01907584883361327
166	0x3f98b46c045e7b26	0.024125755087534582
167	0xbfa142ffb51a09ed	-0.033714285714285676
168	0x3f908e41a1c6bec8	0.016167665003819193
169	0x3f94eda5cc63f140	0.020437803840637203
170	0xbf9e6d6bf577a95d	-0.029714285714285683
171	0x3f3ac0529b5142b3	0.00040819184079502884
172	0x3f3da88ed05990dd	0.00045255171457926434
173	0xbf42b97d835d548d	-0.0005714285714285714
174	0x3feb2c0d25f90449	0.8491273633627624
175	0x3fed71231f029814	0.920060692373911
176	0xbfeb89055d229fc1	-0.8604761904762129
177	0x3fe352dcef6c5fa0	0.6038651157605166
178	0x3fe96e704a41cf26	0.7947312784512846
179	0xbfe89374bc6a7e62	-0.7679999999999831
180	0x3f3e0ee9d52c5293	0.00045865258032166365
181	0x3f4500edd7502523	0.0006409798940022786
182	0xbf42b97d835d548d	-0.0005714285714285714
183	0x3f9c4032b4cdf939	0.027588646207271614
184	0x3fa2d8a6d9e83e42	0.03680917177200317
185	0xbf9b358a62e39ed1	-0.026571428571428527
186	0x3f3dbd412bf4ee78	0.00045378533464533006
187	0x3f44e866f235cb4c	0.0006380560557047526
188	0xbf42b97d835d548d	-0.0005714285714285714
189	0x3fa6f141c4959466	0.04480939411841049
190	0x3faba3af57ca7a9d	0.053983191935221365
191	0xbfb5acb6f46508df	-0.08466666666666665
192	0x3f2ce8a466d628d9	0.00022055632454637852
193	0x3f34b666ac4e18d9	0.000316047732035319
194	0xbf4c163c450bfed4	-0.0008571428571428571
195	0x3fe54c1f5a8864d7	0.665542294332364
196	0x3fea0dc15dc3a6f5	0.814179118283589
197	0xbff31a9fbe76c8bb	-1.1940000000000015
198	0x3f381a043d69419c	0.00036776164543985703
199	0x3f3bfca4eea9073c	0.0004270460764567057
200	0xbf38f752047c70bc	-0.0003809523809523809
201	0x3fa75de43de9e278	0.0456382108286037
202	0x3fab7fde75f6fd20	0.05370993795394896
203	0xbfb16872b020c493	-0.06799999999999988
204	0x3f2b14179fa18764	0.00020659244893566763
205	0x3f319fcd35a85879	0.00026892433166503905
206	0xbf45d867c3ece2a5	-0.0006666666666666666
207	0x3feb33c52fad2489	0.8500696116617671
208	0x3fee9b44ec0c8f99	0.9564537630399058
209	0xbfece04e04e04ef1	-0.9023809523809786
210	0x3f9b6314d804c0ab	0.026745153126456127
211	0x3f9fb362f837b4a1	0.03095774307250976
212	0xbf9b4e81b4e81b51	-0.026666666666666675
213	0x3f32dcaba1e9bd82	0.00028781118627470997
214	0x3f365378d4fdf3b6	0.0003406686782836914
215	0xbf38f752047c70bc	-0.0003809523809523809
216	0x3f3300ef93a13b3b	0.0002899727729798633
217	0x3f366304c756b2dc	0.0003415953318277995
218	0xbf38f752047c70bc	-0.0003809523809523809
219	0x0000000000000000	0.0
220	0x0000000000000000	0.0
221	0x0000000000000000	0.0
222	0x3f305490e8d94f36	0.0002491811545486279
223	0x3f33f494d242e6be	0.00030449517567952475
224	0xbf38f752047c70bc	-0.0003809523809523809
225	0x3f2ccfa8512f969a	0.00021981172230238906
226	0x3f3357404ea4a8c1	0.00029511756896972654
227	0xbf38f752047c70bc	-0.0003809523809523809
228	0x3fd52112744b776f	0.33014355999863815
229	0x3fda859c3f6b73af	0.41440492814381974
230	0xbfe85b4843e06687	-0.7611428571428441
231	0x3f13b8d0bb8ce6ee	7.523321154403645e-05
232	0x3f25a4c2038cc410	0.00016512745221455892
233	0xbf4c163c450bfed4	-0.0008571428571428571
234	0x3f152c86d7cada7d	8.0772142562727e-05
235	0x3f25be252316cd13	0.00016588404973347983
236	0xbf4c163c450bfed4	-0.0008571428571428571
237	0x0000000000000000	0.0
238	0x0000000000000000	0.0
239	0x0000000000000000	0.0
240	0x3f38f3df490cd412	0.0003807468538526436
241	0x3f3c041c66207eb4	0.00042749112447102865
242	0xbf38f752047c70bc	-0.0003809523809523809
243	0x3fec7774b545d50d	0.8895820179447199
244	0x3ff00033978b20a2	1.000049201933543
245	0xbfe26c405d9f73b3	-0.5757142857142895
246	0x0000000000000000	0.0
247	0x0000000000000000	0.0
248	0x0000000000000000	0.0
249	0x3fe133203d86097f	0.5374909593231648
250	0x3fe3783e63afb7f1	0.6084281870841989
251	0xbfde802572fb0617	-0.4765714285714195
252	0x3fd2921f61b485fc	0.2901686147834821
253	0x3fd69200caf4f0d6	0.3526613218307494
254	0xbfd2a6c405d9f6ef	-0.2914285714285673
255	0x3f9da0f80d15566a	0.028934360312027264
