RL2Grid_Template/sync/ppo_model_100000_steps/policy.pth (torch, 966258 bytes, 11 tensors)

mlp_extractor.policy_net.0.weight f4 [256, 186]
00000000: 57bf 16be 7094 dc3d edd1 aa3d 99cd b23b
00000010: 80c4 d8bd 61b2 f8bd 05f5 18bd 27fb 8b3b
00000020: baa1 a7bd 7036 9f3d 6b4b 3f3e a6da cdbc
00000030: a36e 64be 8edf e6bd 01b5 9a3d d36f 863d
00000040: d6ad 33bd 66b9 0ebd 8aa2 4d3c bd15 6c3d
00000050: 2531 b03c 796b 2bbe 8857 9fbd be74 4cbd
00000060: 6ad5 d9bd cb23 d6ba 88f9 f43d a5a6 a33d
00000070: 8e29 913d b85a 3c3e cfe6 febd 3699 193c
00000080: 6f51 523b 50d3 4c3e 4fcb a83d a779 dabc
00000090: 1e84 1e3b 7988 48be d84f da3c 60d6 c33d
000000a0: 2039 b9bd 5ae4 6dbd d43b 41be 0e00 1e3d
000000b0: 95c7 3ebd 8cf4 60bb 8e26 89bd e5ca b83d
000000c0: ab0b 1a3e b5d7 3bbd b2ff 05bd f5a7 1d3e
000000d0: 5b25 4c3d bb32 01be 2fec 323d bae5 f63c
000000e0: 283c 0e3d a9b6 423b 7ca7 1a3d a812 bd3d
000000f0: d339 01be b37a 5fbd 417b b03d 11bb 6dbd
00000100: 967e a3bd 6062 8ebd 3e65 1b3d aea6 243d
00000110: 9910 62bd 86d8 22be 7868 283d 5db6 afbd
00000120: 9d79 97bd 98a0 c63d 9fe7 753d 2fae 28bd
00000130: f9f0 dcbd 334f 183c a64e 45bd 9cca c0bd
00000140: 9346 1a3e f5d6 0f3c 213f f63b 1cb2 fe3b
00000150: 626d c13c 0eb1 ea3d 0f5b a43d cbad 11be
00000160: 7a73 0abe 3f15 dcbd fb76 e93d 0dc3 a9bd
00000170: 3094 13be c7c4 1c3e 7ad9 8a3d 91f3 04be
00000180: 18af 9cbd 99c0 01bd 6b8b 973c 3c43 293d
00000190: 5cd9 d5bd 8f94 08bd dec1 0e3e 0817 96bb
000001a0: 2ad1 0c3e 6055 69ba d3e5 7a3d 3a00 72bd
000001b0: 5a4d 053d 9355 09bd 991b ccbd 72e5 adbc
000001c0: 8980 ea3c bc12 e33d 88ff 923d aa24 1b3c
000001d0: 9a23 8dbd ef56 0ebd 8e4f 103e 0008 9e3d
000001e0: e7aa fcbd ba9e 243e a7a2 463e 9073 643d
000001f0: 9754 c3bc b655 9d3d 042f 2abe 598d 0e3d
00000200: 7a8d bcbc ff3e 243d 330e 5bbd 8c9d 12be
00000210: 656c 15bd 6309 ddbd 1642 133e 87de 2a3d
00000220: 0988 ebbd 8bd4 cbbc abf3 55bd b14e b93c
00000230: c798 093d 83fb 51bd ef38 07be d338 0d3d
00000240: 75d6 f23d 4feb 393d e2b7 d93d a47f 49be
00000250: 2a2d 2dbd cc3d 8abb cd34 583d 98de 0c3d
00000260: a501 82bc 543c bc3c a9bc 35be 2142 713c
00000270: 3280 8b3d 4fab ee3d 6792 1f3d b73b dd3d
00000280: 28c1 d73a 38b0 0f3e 31ea d3bd 5adb 963c
00000290: 48e0 b73d 99ca cdbd 76f5 cabd e4eb 34bd
000002a0: 513a d3bd 0776 1dbe c3e9 f73c 221e fa3b
000002b0: 81e1 703c 930a 713c d763 9fbc 3f8c a1bd
000002c0: 5da8 e53d 9eba d13d 73fb 203e 81e0 dabd
000002d0: 8e11 0c3d 129a 003e 92b1 c63d e3d6 62bd
000002e0: 18e8 c63c f833 7a3d 9e55 1a3e 25a3 593d
000002f0: 26ed d9bd e967 b2bc b54e aabd ad3b c13c
00000300: d026 47bc 9e8e 3cbc a7a0 c23c 91fd e9bb
00000310: 4c2e 593e 7b34 fb3c 4d62 883c becf 833c
00000320: b582 debd fb37 74bc 27e3 4abd ec7a fa3c
00000330: 778a e43c 5439 36bc d09c 373e 8d34 1ebd
00000340: d431 1a3e 627a 3ebd 5e46 b23d c7ec d63d
00000350: 5186 cebd 9dd0 4abb 2a96 143d 2402 44bd
00000360: 774e eb3c 4070 e43c 9305 d7bd 693b 50bd
00000370: 734c 6e3d 4860 a43d 1f7d 1a39 6bb8 093d
00000380: f2e1 d43d ea91 89bd 0ca9 223c e945 fabd
00000390: 8231 523d c96d 183c e85f 9abd 3017 153d
000003a0: 4062 0c3d e9cf df3d 88a1 36bd d3a7 923d
000003b0: 18a3 84bc 9190 5abd 3cfa 4f3d 3e84 a9bd
000003c0: cdb8 8cbd 1bb6 983c 4096 723d ad1c 223d
000003d0: afd9 a6bd 0bf0 2d3d 7957 1c3e 9671 21bd
000003e0: 4026 a9bd e878 95be 1de6 883d 91e1 153c
000003f0: 34a5 473e 4a97 f5bd 9a17 99bd b81d 8f3d
-0.14721428 0.107705 0.083408214 0.005456638 -0.105843544 -0.12143398 -0.037343044 0.004271883
-0.08185144 0.07774055 0.18681113 -0.025128674 -0.2230783 -0.112731084 0.07554055 0.065642975
-0.043866955 -0.03484478 0.012550959 0.05763792 0.021507809 -0.16740216 -0.07780367 -0.04991602
-0.106364086 -0.0016337571 0.11961657 0.07990769 0.07088004 0.18393981 -0.12446367 0.009374907
0.0032091995 0.20002484 0.08241903 -0.026669336 0.0024187635 -0.1958331 0.0266494 0.09562373
-0.09044099 -0.0580791 -0.18870479 0.03857427 -0.046577055 -0.0034325449 -0.06696807 0.09023074
0.15043513 -0.04586001 -0.032714553 0.15396102 0.049840312 -0.12617008 0.043682273 0.030138839
0.03472534 0.0029710925 0.03775738 0.09232074 -0.12619714 -0.054560374 0.08617259 -0.05803973
-0.07983129 -0.06952357 0.03793835 0.04019802 -0.05519161 -0.1590291 0.041115254 -0.08579705
-0.07396243 0.096985996 0.060035344 -0.04118174 -0.107881494 0.009296226 -0.048170708 -0.09413645
0.15065984 0.008779277 0.00751485 0.007772697 0.023611728 0.11459552 0.080251805 -0.14226453
-0.13520613 -0.1074624 0.11399647 -0.08289156 -0.14411998 0.1530944 0.067797616 -0.12983538
-0.07650584 -0.031677816 0.018499097 0.041323885 -0.10441849 -0.0333448 0.13941142 -0.0045803823
0.13751665 -0.00089009665 0.061254334 -0.059082247 0.03254447 -0.033528876 -0.09966201 -0.021227572
0.028625743 0.11087558 0.07177645 0.009469191 -0.06891556 -0.034750875 0.14092848 0.0771637
-0.123372845 0.16076174 0.19397984 0.05577427 -0.023844047 0.07682364 -0.16619498 0.03480277
-0.02301668 0.04009914 -0.05348034 -0.14317912 -0.036480326 -0.10792806 0.14380679 0.041716125
-0.11500556 -0.024881622 -0.052234333 0.02262053 0.033592965 -0.05126525 -0.13205312 0.03447802
0.11857311 0.045390423 0.10630776 -0.19677597 -0.0422794 -0.0042187925 0.05278473 0.03439197
-0.015869925 0.022977985 -0.1774775 0.014725239 0.06811561 0.11653768 0.03895798 0.10802405
0.0016460763 0.14032066 -0.10347403 0.018415142 0.08978325 -0.10048408 -0.09910099 -0.044170275
-0.10313857 -0.15377055 0.030262833 0.0076329866 0.014702202 0.014711994 -0.019456787 -0.07888078
0.11213753 0.102406725 0.1572092 -0.10687352 0.03419643 0.12558773 0.097018376 -0.055380713
0.024280593 0.061084718 0.15071723 0.053134102 -0.106409356 -0.021778064 -0.083157934 0.023588026
-0.01215525 -0.011508612 0.023758246 -0.007140823 0.21209067 0.030664673 0.016648436 0.01609027
-0.10864774 -0.014905925 -0.049533036 0.030576192 0.027898056 -0.0111220665 0.17930913 -0.038624335
0.1505807 -0.046503432 0.08704828 0.104943804 -0.100842126 -0.0030947097 0.03627602 -0.047853604
0.028723938 0.027885556 -0.1049911 -0.050837908 0.058178376 0.08026177 0.00014733196 0.03362314
0.10394658 -0.06717284 0.009927999 -0.122203656 0.051316746 0.009303519 -0.07537824 0.036399066
0.034273386 0.109283276 -0.044587642 0.07160916 -0.01619105 -0.053360526 0.05077575 -0.08277176
-0.068711855 0.018641522 0.05922532 0.03957813 -0.081469886 0.04246525 0.15267743 -0.039414965
-0.08259249 -0.29193807 0.066845156 0.0091480175 0.19496614 -0.11991747 -0.07475205 0.0698809

mlp_extractor.policy_net.0.bias f4 [256]
00000000: 2b17 2736 7872 f53a bb47 09bb 26b5 9a2e
00000010: 3637 05ba aa4d 5b3a 3847 ee38 f432 0f3b
00000020: 349d 5abb e2b0 d0ba 8820 9ebb 0000 0000
00000030: 3524 0d3a a0fc 14bb 4a31 d639 97f8 a93a
00000040: 7afb 2eb8 0000 0000 c5a1 01bb 8b02 7ab7
00000050: 4ab4 633b 0000 0000 0000 0000 d0b9 713a
00000060: 308e f237 97c3 993a fbc3 0933 ca73 1f3a
00000070: 7764 403a 84b4 0938 7e94 5c30 92e0 423a
00000080: bcd6 00b8 0000 0000 883d c338 9af9 8735
00000090: 2c79 013b 2630 b631 830b b8b1 8bbe ca3a
000000a0: b16f 2f3a 0000 0000 a8ec f339 af01 a4b9
000000b0: f1c2 ceb3 4a2b 52b9 0000 0000 0000 0000
000000c0: 0000 0000 1db1 b73b c3cd 6e3b 94a2 133b
000000d0: 5a6c 8eba 019a 0337 0000 0000 b12d a938
000000e0: 2862 03b8 0000 0000 67d5 e13a 0000 0000
000000f0: 3b90 d832 ce67 b9b9 b978 28b7 c2b9 8c37
00000100: 74a9 5ebb 7333 b33a 4969 40b8 778e 963a
00000110: 6739 08bb dd50 5b33 cddc d6b9 e080 4c37
00000120: 7d68 cdb5 f8ce 01b6 0000 0000 2e60 af3a
00000130: 566d 0039 6b7f 0732 ce81 a5b3 9427 9138
00000140: 2b14 bdb8 3b7a 5c35 0000 0000 39f6 6c38
00000150: 67a4 86b9 0000 0000 c0c9 04bb 78da 86b9
00000160: 0000 0000 adaf 093a 0000 0000 3857 3133
00000170: 8efb 8e3a ebd2 2fae 0ba7 ea37 ee0b 84bb
00000180: 0000 0000 22f6 3eb0 87d6 bd2e cd38 5c39
00000190: fafc 17ad f395 04ba 0000 0000 a0ae 8a3a
000001a0: 1aa9 89bb f05b cd3b 0000 0000 daa0 b5b7
000001b0: cb2e 1cb7 4beb 7439 05ed 1fb9 a0d1 083a
000001c0: 99d0 ee37 f9cb 8c3b 0000 0000 7696 afb6
000001d0: ee17 77b4 0571 58bb 379a 243a 164c e8b4
000001e0: 1314 1aaf 48c6 b839 0000 0000 667b 0ab9
000001f0: 275b 8faf ad25 49b3 0e05 493a 0000 0000
00000200: 0000 0000 0000 0000 439b 153b 0000 0000
00000210: 655c 54bb 5aef 10ae 0000 0000 51fd 31ba
00000220: 92ac 8034 7418 46ba a133 e338 13ff c531
00000230: 5b8a 57bb 0000 0000 0a02 1c37 cb5e 3f38
00000240: 9cef 583a 4902 963a 2e07 e5ba 0838 893a
00000250: f9e5 8f3b 0000 0000 fa35 95ba cc67 9834
00000260: 8cc9 44b9 ff3f db3a 2d1b 043a abb0 54b8
00000270: 3e61 bf3a 5e8b 4e3a da7e 1f39 381f 88bb
00000280: 699b 85b6 e36f 3537 43b7 a6ae daff 1bb8
00000290: f3e3 e33b 9324 2333 8aa5 3bae 8e95 563b
000002a0: 1f8f 80ba 1165 8d34 ce8b 83b8 433d 8539
000002b0: 408f 10ba b29e 3d3a 2dde b931 5c21 8d39
000002c0: 1227 f3ba 2022 033b 0000 0000 9064 742c
000002d0: f7a1 92b7 29c6 90b8 7917 eab8 2b72 4f35
000002e0: 4851 30ba 0000 0000 eb5d 8d35 151f 75ba
000002f0: 0000 0000 d0af 28ba fb6c 4b3b 114a 8634
00000300: b21c 5739 cebd f3b7 790a 94b6 0d25 3b3b
00000310: 53e6 1537 772c cc38 3a8b 1f3a 4b34 00bb
00000320: 0000 0000 5814 83ba 0000 0000 1685 4038
00000330: f9cc 2db7 c7db 9f3b 615d a5ba 0000 0000
00000340: 4392 883a a7b3 003b 0000 0000 5065 0d3b
00000350: d888 00bb a266 ae35 78b0 82b7 ad2d 29b7
00000360: 2c9f f3af bbde 853b 52f1 a739 2860 5fbb
00000370: 222d 8a3a 76f9 50ba 6767 cc38 ef5b d23a
00000380: fd54 4fba 5a41 6739 c415 2a38 a35a 353b
00000390: 011e 9d30 d686 4b39 f8cc c53b 9841 983a
000003a0: 0000 0000 d1b5 efb6 0000 0000 2090 1236
000003b0: 53e3 a0b8 0153 2cb7 97c8 1b3a 80a8 333b
000003c0: 9580 07ba d394 893a 181d 243a ce82 0db4
000003d0: 6cf9 9f35 55f5 7fb6 5c41 4f37 2a87 91b9
000003e0: 6e42 60b8 911a 3b3b 0000 0000 ebaf ba2e
000003f0: a5e9 b12d 6714 443b 1e27 e230 0000 0000
2.4898425e-06 0.0018726131 -0.0020947296 7.0352876e-11 -0.00050817744 0.000836576 0.0001136199 0.0021850439
-0.003335786 -0.0015921856 -0.0048256554 0.0 0.00053841184 -0.0022733584 0.00040853984 0.0012967762
-4.171904e-05 0.0 -0.001978026 -1.4901753e-05 0.0034744912 0.0 0.0 0.00092211086
2.891486e-05 0.0011731264 3.207604e-08 0.00060826226 0.0007339189 3.2831464e-05 8.0246554e-10 0.0007433976
-3.0717565e-05 0.0 9.309786e-05 1.0130927e-06 0.0019756062 5.302371e-09 -5.3564135e-09 0.0015468163
0.00066923635 0.0 0.00046524894 -0.00031281772 -9.628082e-08 -0.00020043287 0.0 0.0
0.0 0.0056058303 0.0036438562 0.0022527324 -0.0010866032 7.844065e-06 0.0 8.067059e-05
-3.132425e-05 0.0 0.0017229737 0.0 2.5211298e-08 -0.0003536329 -1.0041688e-05 1.67758e-05
-0.0033975514 0.0013671949 -4.587442e-05 0.001148655 -0.0020786168 5.1063456e-08 -0.0004098177 1.2189354e-05
-1.53041e-06 -1.934297e-06 0.0 0.0013380104 0.00012247762 7.887006e-09 -7.7070226e-08 6.921511e-05
-9.015979e-05 8.2134255e-07 0.0 5.6496097e-05 -0.0002568096 0.0 -0.0020261854 -0.00025721244
0.0 0.0005252313 0.0 4.129035e-08 0.0010908709 -3.9977726e-11 2.797276e-05 -0.0040297424
0.0 -6.9471373e-10 8.6328326e-11 0.00021001995 -8.639528e-12 -0.00050577446 0.0 0.0010580607
-0.0042010667 0.0062670633 0.0 -2.1651784e-05 -9.309219e-06 0.00023357307 -0.00015251718 0.0005219225
2.8468947e-05 0.0042967764 0.0 -5.2329224e-06 -2.3012373e-07 -0.003302635 0.00062790833 -4.3268727e-07
-1.401335e-10 0.00035242946 0.0 -0.00013206675 -2.6076316e-10 -4.6833225e-08 0.0007668295 0.0
0.0 0.0 0.002282814 0.0 -0.0032403704 -3.2954396e-11 0.0 -0.0006789761
2.396742e-07 -0.00075567444 0.0001083382 5.762453e-09 -0.0032888863 0.0 9.298799e-06 4.562623e-05
0.00082754507 0.0011444773 -0.0017473453 0.0010468969 0.0043914285 0.0 -0.0011383884 2.8387728e-07
-0.00018767099 0.0016727446 0.000503945 -5.0709274e-05 0.0014601124 0.00078790437 0.00015210678 -0.004154112
-3.981801e-06 1.0814491e-05 -7.58136e-11 -3.719316e-05 0.006954664 3.798466e-08 -4.2665906e-11 0.003274295
-0.0009808278 2.6336832e-07 -6.2726074e-05 0.0002541338 -0.000551451 0.0007233425 5.409467e-09 0.0002691847
-0.0018551073 0.0020009354 0.0 3.4730309e-12 -1.7479977e-05 -6.903365e-05 -0.000111623616 7.7279645e-07
-0.0006725979 0.0 1.0532652e-06 -0.000935064 0.0 -0.00064348895 0.00310403 2.5013335e-07
0.00020514688 -2.9056242e-05 -4.411963e-06 0.002855602 8.934719e-06 9.73576e-05 0.0006086115 -0.001956242
0.0 -0.001000057 0.0 4.5900313e-05 -1.03593275e-05 0.0048784944 -0.001261633 0.0
0.0010419566 0.001963833 0.0 0.002157528 -0.0019612815 1.299388e-06 -1.5579382e-05 -1.008382e-05
-4.431454e-10 0.0040853894 0.0003203252 -0.0034084413 0.0010542015 -0.0007971743 9.746738e-05 0.0016049127
-0.00079090876 0.00022054222 4.055143e-05 0.0027672432 1.1431781e-09 0.00019409819 0.006036397 0.0011616228
0.0 -7.1439213e-06 0.0 2.1839587e-06 -7.671737e-05 -1.0271325e-05 0.0005942671 0.0027413666
-0.00051690015 0.0010496624 0.0006260439 -1.3179235e-07 1.1919014e-06 -3.8140763e-06 1.2353379e-05 -0.0002775726
-5.346763e-05 0.002854977 0.0 8.48955e-11 2.022633e-11 0.0029919387 1.6454782e-09 0.0

mlp_extractor.policy_net.2.weight f4 [256, 256]
00000000: a238 06be edb3 973c 4f6f 903d 98c3 8c3d
00000010: aba2 e23d 1e19 c1bd 1a16 733d 5d97 5c3c
00000020: cbd6 a93c 7878 61bd 37b1 f83c caf2 f6bd
00000030: a677 61bc 7524 2a3d 511b 1dbd 1c13 0fbe
00000040: 5f8e 03be e6b8 ae3d 58a4 b13c 2600 743d
00000050: dffa b4bd 1dcc f9bd 9d31 38be 0f3d 7c3d
00000060: bfaa cf3d ae5a fc3c 8963 1e3e 45de 94bc
00000070: 510c 833d 6fc1 4d3d 1950 103d df98 3abe
00000080: d373 7bbd 2f84 443d edca fe3c 2a77 633d
00000090: 5823 933d e3f1 603e c02c 7abd 71b6 9f3d
000000a0: d6d7 ccbc 90b4 ed3d 7093 59bd 35c9 2a3d
000000b0: 5ef6 cfbd d525 3a3e 167d d1bd fbc5 0f3e
000000c0: 231d 86ba e87e b33c 1ec8 943d d331 7ebd
000000d0: 811c 89bd a36e 173d 9f00 3cbd 8ec8 f3bc
000000e0: fd38 5b3b 1edb 99bb c49c 03bd 044d a33d
000000f0: b639 5a3b 86a2 7e3d a064 a2bc a980 d8bc
00000100: d8c1 d83d 731a 7d3d 404a 14bc 8e9a 3cbc
00000110: 13a2 ab3d 3b2a 3abe d4ae 08be 6f5b 6c3d
00000120: 2d8a 44bd 3df1 643c 483e 573a db71 2dbe
00000130: f4db 5e3d 6c8a 9cbd d1ee b13d 72c6 71bb
00000140: 7f8c 083d 46eb cfbc cf6e 503e b404 aabd
00000150: c841 00bd 8388 4cbd ebf5 723d 5ec0 a03d
00000160: 4e22 93bd 278e 4bbd c0f8 633b 9d6d 883d
00000170: f5c8 283e 16c7 9b3d d7f7 06be 9f40 f4bc
00000180: 655d 623d a205 74bc 9186 6b3d adf7 413c
00000190: 7b23 b63d ba1f 2b3e 0c85 edbd 52eb 12bd
000001a0: e82b 94bd d14d e7bc ad45 0b3e 413e 0a3d
000001b0: 7749 2b3e 2120 95bd 600a f93d 730b 80bd
000001c0: 55e9 68bd 7503 3c3d 1c55 8d3c a615 e23c
000001d0: 78a8 85bc acb5 aa3d 9024 12bd 56d9 9c3d
000001e0: 3182 c6bd 9bd9 fd3c 87b3 2bbe c894 fcbd
000001f0: d706 5abd e41b ddbd e9f7 a33d afca 753d
00000200: a33a 1cbe b58f a1bd 1830 a8bb bcd4 94bd
00000210: f68b 9a3d f7ae 0dbe 90a4 63bc e10e 2e3d
00000220: 77d9 dcbd 1ab6 543e eb80 b53d fbf1 13bd
00000230: 53c1 b63d 35b1 05be c307 96bd f284 16bd
00000240: 6482 91bd b76a 263c a83a abbd 8889 8c3d
00000250: 4929 673e 5083 ad3d a392 993d 5e0b 57bd
00000260: fba9 a33d c734 1c3d 8450 383b 8bf5 ac3c
00000270: a42d f53b a41e 1cbe ccf8 08bd 880f 9fbd
00000280: 6575 db3c f201 06bd c513 0fbe c872 d4bd
00000290: 4c01 c7bc 2ce9 533e 1b7e 05be 2e9f 5c3a
000002a0: 5105 44bd 0955 813c 5555 c7bd 425b 9539
000002b0: 4227 583c b180 adbd 60c9 b53c c070 feba
000002c0: 4ee8 b7bb 0055 9d3d 6d61 48be 7374 23be
000002d0: 6f8e ef3b c450 e63c 28a9 493e 8ac5 1e3e
000002e0: 2feb 043c 0c01 933d 172c 1dbe 6a5e a6bc
000002f0: b98c 1bbd 50c1 9f3d ec4f 6dbd 3614 89be
00000300: 1128 fd3b 6aa9 7b3d 2b30 3ebd 702a 443c
00000310: 1533 c7bc 73c2 8c3d 0c90 dd3d f265 b03c
00000320: 7258 febc 7774 ec3c 8bef 9bbd deff 8d3c
00000330: 8c52 563c 34c4 71bd eb78 c3bd 7cdd 99bc
00000340: 7d13 3c3e 1a07 d7bd 07ba 023e 5cef 013a
00000350: 0fb8 35ba 096f 41be 6b54 ee3d be15 63bd
00000360: ffa6 6d3d e7e8 523d e85f 45bd 6c92 3838
00000370: 82b7 dbbd 97b0 a03d 68f6 263d 11c2 2ebc
00000380: c22b a53d 7581 55be 9ebd 653c b1fb 1d3d
00000390: 9d5f 053c 1e7c 08be 2bf9 d5bb 0960 013e
000003a0: 17da 023d 9d5f 833c 2b96 a7bd 7152 84bd
000003b0: 5b0c 52bc 646f 88bd cd86 21bd 6df0 f5bd
000003c0: 0084 f1bd 7f17 19bd 792c 2ebd 536d 1fbe
000003d0: 5887 213c fd6c 603e c437 223e 94db e3bc
000003e0: 0d39 e53c 5350 313d 4948 063e 4fd1 edbc
000003f0: bfb6 773d c4d0 963d 60d6 01be 1b78 273d
-0.13107541 0.018518412 0.070524804 0.06873244 0.11066183 -0.09428619 0.05934725 0.013463822
0.020732304 -0.05504653 0.03035794 -0.12058027 -0.013761437 0.041538674 -0.03835613 -0.13972133
-0.12847279 0.0853136 0.02168481 0.059570454 -0.08836912 -0.12197135 -0.17987676 0.061581668
0.10139989 0.030804958 0.15467657 -0.018172393 0.063988335 0.0502333 0.035232637 -0.18222378
-0.061389755 0.047977623 0.031102622 0.055533566 0.07184476 0.21967272 -0.061077833 0.0779847
-0.025005262 0.11606705 -0.053119123 0.041695792 -0.10154413 0.18178494 -0.102289364 0.14040367
-0.0010232072 0.0219111 0.07264732 -0.062059235 -0.0669489 0.036970746 -0.04589903 -0.029758718
0.0033450716 -0.0046953103 -0.032131925 0.07973674 0.0033298559 0.062166713 -0.019823372 -0.026428537
0.10583848 0.061792802 -0.009050906 -0.011511458 0.083805226 -0.18180172 -0.13347942 0.057704385
-0.047983337 0.013973531 0.000821088 -0.16937964 0.054408982 -0.076435894 0.08688129 -0.0036891964
0.033337113 -0.025380742 0.2035477 -0.08301678 -0.031312734 -0.049934875 0.059316557 0.07849191
-0.071842775 -0.049696114 0.0034785718 0.06661532 0.16482909 0.07606332 -0.13180481 -0.02981597
0.05526485 -0.014893921 0.05750138 0.011838836 0.08893486 0.16711321 -0.11597642 -0.03586895
-0.07234937 -0.028235348 0.13600798 0.033750776 0.16727243 -0.07281519 0.12160182 -0.06252184
-0.056863148 0.045901734 0.017252497 0.027598213 -0.016315684 0.083354324 -0.0356794 0.07658641
-0.09692801 0.030987551 -0.16767703 -0.12333065 -0.05322918 -0.10796335 0.080062695 0.060007747
-0.15256743 -0.07888738 -0.0051326863 -0.07267138 0.07546227 -0.13836275 -0.013894215 0.04249466
-0.107836656 0.20772591 0.0886248 -0.036119442 0.089235924 -0.1305588 -0.07325699 -0.03674788
-0.07104948 0.010157279 -0.08360797 0.068621695 0.22574343 0.084723115 0.07498672 -0.052501075
0.079914056 0.03813627 0.0028124163 0.021113178 0.0074822474 -0.15246063 -0.033440396 -0.07766634
0.026789377 -0.0327167 -0.13972385 -0.10373455 -0.02429261 0.20694417 -0.13036387 0.00084160536
-0.047856633 0.015787618 -0.09733073 0.00028487487 0.013192954 -0.084718116 0.02219075 -0.0019412264
-0.0056124097 0.07682228 -0.19568415 -0.1596239 0.0073106806 0.028114684 0.19693434 0.15505043
0.008112713 0.07177934 -0.1534885 -0.020308692 -0.037976 0.07800543 -0.057937548 -0.26773232
0.0077257236 0.061440863 -0.046432655 0.0119730085 -0.02431635 0.06873026 0.108184904 0.021532986
-0.031048033 0.028864129 -0.076140486 0.017333921 0.013081204 -0.059025005 -0.09544548 -0.01878237
0.18366809 -0.104994014 0.12766276 0.0004956627 -0.0006932029 -0.18890013 0.11637195 -0.055440657
0.058020588 0.051491644 -0.048187166 4.4005385e-05 -0.10728361 0.07846182 0.040762335 -0.010666386
0.08064987 -0.20850165 0.014022259 0.03857011 0.008140472 -0.13328597 -0.0065299473 0.12634291
0.031946268 0.016036803 -0.08182939 -0.06461037 -0.012820329 -0.06661871 -0.039435197 -0.12008748
-0.11792755 -0.037375923 -0.04252288 -0.15569048 0.009858929 0.21916576 0.15841585 -0.027814664
0.027981305 0.043289494 0.13113512 -0.02903047 0.060477015 0.07364038 -0.12679434 0.040886026

mlp_extractor.policy_net.2.bias f4 [256]
00000000: 00cc 8e3a 48a1 923a f7a3 3dba 19f6 0ebb
00000010: d552 f43a b8ee 07bb b864 1b3a ff24 26bc
00000020: 3a12 a63b dbdf dc3a dede 103c 0d03 72bb
00000030: 0605 b6b9 323b 14bc 7705 81bb ada6 bd3b
00000040: f1e0 48ba e9c1 243b 9cb4 6539 42ca eb39
00000050: 8f12 98ba 524d 24b9 f896 a3ba 08a2 9dbb
00000060: 622a 213a ce49 013c 57cb e03b 8977 49ba
00000070: 4653 8cbb 8d17 843b ddfc 53ba f6c1 95ba
00000080: 5a20 473b 00f0 3f3b d145 89bb dcbb c83b
00000090: cc60 66bb 7e2c 923b 5ed6 29bb abe0 383b
000000a0: 96d4 29bb fb1c 87b9 200f 26bb 95d1 813b
000000b0: 959c f7ba 459f c93b 764b 903b 7b51 b13b
000000c0: bd92 fc3a 8950 22bb e81a 7a3b 76af e93b
000000d0: 7bbf 98bb 1a8c a9bb ab3d 82bb edfa 67bb
000000e0: 38b3 6fbb d38d 15b9 e3b1 82bb 1a9b 78bb
000000f0: 533a 09bb ba23 973b 79b3 0b3a 0cc5 69bb
00000100: 2a5c d9bb bad9 033b ab26 5a3b 33f7 46bb
00000110: 2c27 c93b 211c 19bb b1be 9aba 1e4a 88bb
00000120: 6f8d 4e3b 9706 6b3b ef97 f13b ad93 d9ba
00000130: 93c1 c93a cd21 c13a ba3a c2bb db9b 753b
00000140: 29ab 02bb a8c3 adba bb5f 453b 3ff8 ae3a
00000150: 5401 d3ba c85e c23b fca6 ceba 064d 09bb
00000160: 5107 543b 62e7 003c 7953 daba f5f9 e5bb
00000170: 2764 8e3b 8774 edba 9686 a3bb 271f 143a
00000180: be07 f2bb de9b a0bb e818 3439 e0fe de3a
00000190: 34ad a83b cf32 15bc ec05 af3a 24d2 21ba
000001a0: a3a5 a1bb 2edc 56b9 f2c2 5a3b 4d59 cd39
000001b0: 88cc 61bb 905f b13b 72d1 4c3b 7e80 ebba
000001c0: d664 e5bb 13b2 2eb9 20f9 9e3a 29a8 0cbb
000001d0: d13e 033b 308b 5dbb 2185 97bb d3c5 383a
000001e0: c5b2 8c3b 1860 05bb eda7 beba 72aa a33b
000001f0: 999e 623b 2205 05bc 1c7a fbbb 1b87 613b
00000200: ac16 33ba 9cc8 093b fe72 5abb e7d5 4fbb
00000210: a1f2 b33b c296 3e3b bc8f 2abb 09ce 523b
00000220: 8aa2 96b9 861d ac3b 67eb c23b 7d65 c339
00000230: d624 f73a 4580 0ebb 7598 9f3b 8036 3bbb
00000240: 28c0 833b 651d 28bb 1198 a6b7 7dfe b2ba
00000250: 37b6 853b ba4a 563b 1a9a 003a a0c5 c6ba
00000260: 8618 2f3b a294 1fbb 6712 343b 7947 04bb
00000270: a434 553a 3433 a5bb c136 aebb f87b 80ba
00000280: 0171 663a e59c 83b7 2a2b 71bb 5422 133b
00000290: 677c 253a fb15 9ab9 f3dc 4abb ee39 c4bb
000002a0: 7c15 fa3a 87dc a23b b907 d63a 91b4 61bb
000002b0: b939 b0bb 31cf 1939 1d72 2a3b 69e1 1fbb
000002c0: 3cb5 cfbb d18d 993b 16e9 563b 6312 2b3b
000002d0: 58e7 b2bb 5a26 0b3c eec0 88bb b351 d7bb
000002e0: aedb faba c47e 98bb 2486 6dbb dd2b f73a
000002f0: cb18 1dbb 2a45 59bb 427d ae3b 9edb 2dbb
00000300: d8af 97ba fa48 8fbb e8a2 12bb 8a7a 603b
00000310: 8b00 103b 9946 4538 72c0 a13b d61a d33b
00000320: 38fa 3f3b 39e1 7e3b edc2 dbba 48a4 82bb
00000330: a68f aaba 9140 8e3a 9256 29ba 195b 1cbc
00000340: a402 f5bb 82ef adba e9d1 eabb 36a6 963a
00000350: e1c2 843a 6d1a a3bb a378 ef3b 2cd1 2f3b
00000360: 6932 273a b864 21ba da25 493b 925b 803b
00000370: 57a8 073b d57d 57bb bf94 813b 91ae 4b3a
00000380: 7537 34ba 2372 693b b022 2abc 6a28 9cbb
00000390: 7162 203b 5c92 b0bb 6ba5 9c3a 8096 00bb
000003a0: 12ce 3dbb 5397 4139 05a1 37b9 14d9 c73b
000003b0: a785 58bb c345 46bb 6cbf 0cbb b53f d13b
000003c0: 5b64 a9ba d72a 933b 38e2 5a39 368e 7f3b
000003d0: cceb b23a 0362 57bb 27b9 15ba 9df8 68bb
000003e0: badc 9a3b 62d9 ad3a add7 513b 9e59 bc3b
000003f0: 7637 5b3b d6ac 33bb 9608 2dbb 523f 46bb
0.0010894537 0.0011186982 -0.00072342105 -0.0021814166 0.0018640409 -0.0020741653 0.0005927789 -0.0101406565
0.0050680907 0.0016851382 0.008842198 -0.0036928088 -0.00034717488 -0.009047316 -0.003937419 0.0057876916
-0.00076629134 0.0025139994 0.00021906424 0.00044973387 -0.001160221 -0.00015669063 -0.0012480905 -0.0048105754
0.0006147978 0.007891132 0.0068601775 -0.00076853536 -0.004282388 0.004031128 -0.0008086691 -0.0011425603
0.0030384273 0.0029287338 -0.004189231 0.00612591 -0.003515291 0.0044608703 -0.0025915126 0.0028210084
-0.0025914065 -0.000257708 -0.0025338605 0.0039617517 -0.001889127 0.0061530196 0.004403527 0.0054113246
0.0019269806 -0.002476724 0.003816301 0.0071315123 -0.004661498 -0.005174172 -0.0039746366 -0.0035397366
-0.0036575329 -0.00014262581 -0.003988491 -0.0037934245 -0.0020939305 0.0046124132 0.0005329173 -0.0035670428
-0.0066333013 0.0020118789 0.0033287208 -0.0030359745 0.006138703 -0.0023362713 -0.0011806098 -0.004159226
0.0031517406 0.0035862082 0.007372848 -0.0016599797 0.0015392773 0.0014734805 -0.005927411 0.003747693
-0.0019938445 -0.0013257163 0.0030116874 0.001334913 -0.0016098418 0.005931709 -0.0015766318 -0.002095045
0.0032352994 0.007867666 -0.0016656957 -0.0070183226 0.004345435 -0.0018116393 -0.004990409 0.0005650394
-0.007386177 -0.0049013933 0.00017175416 0.0017013215 0.0051476005 -0.009106352 0.0013353205 -0.0006172976
-0.0049330755 -0.00020490654 0.0033380357 0.0003916718 -0.0034454186 0.0054130033 0.0031252769 -0.0017967371
-0.007000546 -0.00016660271 0.0012128688 -0.0021462536 0.0020026455 -0.0033804886 -0.0046240245 0.0007048521
0.004293772 -0.0020351466 -0.0014545895 0.004994684 0.0034579395 -0.0081189 -0.0076744687 0.0034412805
-0.00068316865 0.0021024114 -0.00333327 -0.003171319 0.00549157 0.0029081558 -0.0026025614 0.0032166264
-0.0002873133 0.005252543 0.0059484723 0.00037268913 0.0018855582 -0.0021743935 0.004870469 -0.002856642
0.0040207095 -0.0025652286 -1.9859554e-05 -0.0013656166 0.0040805596 0.003269835 0.00049057754 -0.0015165098
0.0026717498 -0.0024350067 0.002747679 -0.0020184203 0.0008133149 -0.0050415043 -0.005316586 -0.000980257
0.00087906426 -1.5689477e-05 -0.003679941 0.002245088 0.0006312788 -0.00029389546 -0.003095445 -0.005988351
0.0019079889 0.0049701366 0.0016329206 -0.0034439901 -0.005377975 0.00014668402 0.0026007958 -0.002439583
-0.0063387435 0.0046860953 0.0032792739 0.0026103489 -0.005459707 0.00849303 -0.0041733896 -0.0065710186
-0.0019138956 -0.0046537835 -0.0036243284 0.0018857677 -0.0023971077 -0.0033152797 0.0053249905 -0.0026528607
-0.0011572791 -0.004372713 -0.0022374932 0.0034252726 0.002197298 4.703421e-05 0.0049362713 0.006442408
0.002929343 0.0038891567 -0.0016766466 -0.003986869 -0.0013012781 0.0010852983 -0.00064597384 -0.009543204
-0.0074771214 -0.0013270231 -0.0071661365 0.0011493627 0.0010128879 -0.0049775154 0.007308082 0.0026827557
0.0006378056 -0.0006156671 0.0030692727 0.003917166 0.0020699704 -0.0032881398 0.0039544995 0.0007769848
-0.0006874719 0.003562101 -0.010384247 -0.00476556 0.0024472738 -0.005388541 0.0011951154 -0.0019620955
-0.0028961939 0.00018462287 -0.00017512224 0.006098876 -0.0033038647 -0.0030253984 -0.00214764 0.0063857683
-0.0012923585 0.004491191 0.00020874373 0.0038994676 0.0013650595 -0.0032864816 -0.0005711489 -0.0035548576
0.0047260197 0.0013263638 0.0032019422 0.005747988 0.0033449805 -0.002741625 -0.0026402823 -0.0030250144

mlp_extractor.value_net.0.weight f4 [256, 186]
00000000: 40fa 703d f2a1 873b e19f 09be 58dc 0cbe
00000010: 4a70 8d3d e372 153d 5273 533d cba3 cebd
00000020: 3c24 263e 9f60 bc3c b9de 4f3b 7adb 133e
00000030: 70fe f83c 59f6 2e3e 5b03 3abe 5c93 363d
00000040: 3cf5 57bd ca28 0ebd 767e 2a3d ad93 083e
00000050: 627c e6bd 8501 913d edfb d63b d388 b33d
00000060: 7a17 49bd eee8 d13d 281d 963c cb0e 203d
00000070: 23c5 5d3c 0f3a d73d f5dd 7d3d 91c7 18be
00000080: fc1b c23d 9496 bebd 79a3 e9bd 763d 803c
00000090: f34c bf3d 8de5 98bd 725b afbd 571f f93d
000000a0: 29c9 2f3d 11ea ef3c 2d84 52bb 4ab8 0cbe
000000b0: 7764 81bd 1eeb 203e beca 8fbd bcac 423d
000000c0: 6bb5 723d 8c23 c43d 9238 993d 30c8 1bbe
000000d0: 4283 fbbc 6303 e93d 77ef 4a3d a5e6 313c
000000e0: 1934 0dbe f791 353e 5a41 2f3e d363 9f3d
000000f0: 88df 393d 3fbf 38bc af9e 21bd fde7 40be
00000100: 1208 fabd 2542 a73b 39fb 9bbd 179e af3d
00000110: 118d 01bd c58a 743c e5b9 2b3d 3363 3fbd
00000120: c8f6 76bc f7f3 a2bc fd1b 08be f20e e4bc
00000130: 43fe b73d af67 c1bd 542a 9bbd ad63 e2bd
00000140: c9d6 183d b7b7 ca3d 4360 45be 8154 843d
00000150: 9677 07be 1658 5bbe 9e51 8fbc be62 033d
00000160: 96af 963d 2180 c23d 19e8 f4ba 4197 88bd
00000170: 9a9b 203d 664c 40bd a021 5c3d ae42 9bbd
00000180: 0e6c 1a3e d245 abbd bd2b d4bd 2390 52bc
00000190: 0f80 aabd 649c d53b 1b66 933d 3f72 a13d
000001a0: 9554 77bd 1c24 0f3e 6400 5fbe 0546 073e
000001b0: b3d6 adbc 221b 28be 837a c23d d45c 253e
000001c0: 6620 613e 324f 093e d65c 17bd 003d 84bd
000001d0: 9320 c33d 582d 97bd 1616 ac3d af8d 85bd
000001e0: 84ec 803d bb23 4f3d f51a a7bd 536a 38bd
000001f0: aa11 273d b5c7 03bc a8f1 eabe 5c17 8a3d
00000200: 62fa 213e 5ee8 babd d2e8 16bd 3fe5 07be
00000210: f425 9bbd 72cb d8bd f770 32be 3766 62bd
00000220: 28da 9ebc 8167 303d 986d e63d 1a33 82bc
00000230: 5a0b abbd 9866 0bbd bbde e4bc d4d9 6d3d
00000240: bbdc b2bc 9062 fdbd 746c 803d 9aed a53d
00000250: 00fd f03c d174 ca3c 1b11 f1bd 2693 50bd
00000260: 2a94 5d3d 27ad 57bd 607e 603e 41d0 53bd
00000270: c3c2 86bc f0ce eb3c c356 51be 7fee 37be
00000280: 8498 24bd 7000 bbbc a465 c8bc 986b 7cbe
00000290: 628e d3bd f3c0 bfbb a926 9dbc 5c2c 6a3d
000002a0: 3242 85bd 8ecb 5dbc 79d7 0cbe 0098 d43d
000002b0: 1f47 043e 83a0 69bd b47f 02bd bca4 523d
000002c0: 8b93 11bc b0a2 2c3e 8678 4c3d d95a e9bd
000002d0: bba0 e63d cbae a43d 9efb e1bd 25dc 7fbd
000002e0: 866f ea3d 9864 cd3d 738e e93d 27bf 153e
000002f0: 1d40 21bc 9349 563d c1d9 0bbd e97d 88bd
00000300: b85f 72bd 7e06 95bb e67f 0cbe 1a3d 563e
00000310: 4e24 733d d7cf 92bd c225 cabd fc7c 223e
00000320: ef59 03bc 2de6 e03c 44b5 273a 3394 6a3c
00000330: 306e 1f3d 5c0f 5b3c 4ea2 903d 8994 8f3d
00000340: f339 b5bd 41af b23d 76a3 593d 060f 63be
00000350: dc7b cbbd d28a 95bd 185c 1abd a59f a53d
00000360: 947c 32be 7a4f 3f3d 720d 26bd d169 27be
00000370: ac47 ea3d e13a 243a 7343 823d c386 bebc
00000380: 85cc 14bd d89f 0a3d ec72 8a3d 41ed 58bd
00000390: e69d c33d 22b8 993d fad1 c7bd 4509 973d
000003a0: aee7 e53c f6b5 55bd 7c6e 7c3b 79ff ba3d
000003b0: e8b7 cebd 1009 7cbc bf83 a03d 3e6e 153e
000003c0: 151e 94bb fc88 edbd 9357 1b3c 0b75 8cbd
000003d0: aafc 4b3d 2ac4 b73d a6c3 3fbd 126e ddbd
000003e0: d21b 853d cbec 7cbd dbb6 d4bb f935 ad3d
000003f0: a03b 433d c2c6 d8bd eb1f 803d 306f c03d
0.058832407 0.0041391784 -0.13439895 -0.1375593 0.06906183 0.036486518 0.05162365 -0.10089835
0.1622476 0.022995291 0.0031718446 0.14439192 0.030394763 0.17086162 -0.18165343 0.044574127
-0.052724108 -0.03470687 0.04162451 0.13337584 -0.11254193 0.07080368 0.0065607936 0.087663315
-0.049094655 0.10249506 0.01832445 0.039076608 0.013535771 0.10509121 0.061979253 -0.14919879
0.09477994 -0.09306064 -0.11408133 0.015654307 0.09340849 -0.07465658 -0.08562364 0.12164181
0.04291645 0.029286416 -0.003212224 -0.13742176 -0.0631799 0.1571469 -0.07021092 0.047528014
0.059255045 0.095770925 0.07481493 -0.15213084 -0.030702237 0.11377599 0.049544778 0.010858213
-0.13789405 0.17731462 0.17114773 0.07782712 0.04537919 -0.011276065 -0.039457973 -0.18838497
-0.122085705 0.0051043206 -0.07616276 0.08575075 -0.031628672 0.014925663 0.04192533 -0.046725463
-0.015073486 -0.019891722 -0.13291927 -0.027839158 0.089840434 -0.09443604 -0.07576433 -0.11054168
0.03731421 0.09898322 -0.19275002 0.0646143 -0.13229212 -0.21420321 -0.017494973 0.03207659
0.07357709 0.09497095 -0.0018684893 -0.066694744 0.039210893 -0.04694786 0.053743005 -0.075810775
0.15080282 -0.083629265 -0.10359905 -0.012851748 -0.083252065 0.0065188874 0.071972094 0.07883119
-0.060383398 0.13978618 -0.21777493 0.13210304 -0.02122054 -0.164166 0.094960235 0.16148692
0.21985015 0.13409117 -0.03695377 -0.06456947 0.095276974 -0.073816955 0.0840265 -0.065211646
0.06295112 0.050571185 -0.081594385 -0.045023274 0.04078833 -0.008043219 -0.45887494 0.06742737
0.1581817 -0.09126352 -0.03684313 -0.13271044 -0.07575598 -0.10585679 -0.17425905 -0.05527326
-0.019391134 0.04306746 0.11251372 -0.015893508 -0.083517745 -0.034033388 -0.027938237 0.058069065
-0.021833768 -0.12372315 0.06270686 0.081019595 0.029417515 0.024713906 -0.11770841 -0.05092158
0.05409638 -0.052655365 0.21923208 -0.05171228 -0.016450291 0.028785199 -0.20443253 -0.17962073
-0.040184513 -0.022827357 -0.024462529 -0.24650419 -0.10329892 -0.0058518588 -0.019183474 0.05717121
-0.065067664 -0.013537301 -0.13754071 0.10380554 0.12917756 -0.05703784 -0.03186007 0.051426634
-0.008885275 0.16858935 0.049919628 -0.11394281 0.11261126 0.080411516 -0.1103432 -0.062465806
0.11447053 0.10028952 0.11404123 0.146237 -0.009841946 0.05231626 -0.034143213 -0.066646405
-0.059173316 -0.004547893 -0.13720664 0.20921746 0.059360795 -0.071685486 -0.09870483 0.1586799
-0.008017047 0.027453506 0.0006397555 0.01431756 0.038923442 0.013370361 0.07062207 0.07010753
-0.088489436 0.08724833 0.053134404 -0.221737 -0.09935734 -0.073018685 -0.037685484 0.080870904
-0.17430335 0.046706654 -0.040540166 -0.1634896 0.114394516 0.0006264877 0.06360521 -0.023257619
-0.036327858 0.033843845 0.06760201 -0.052960638 0.09551601 0.07505824 -0.09756847 0.07374815
0.028064575 -0.052175485 0.0038518002 0.09130759 -0.10093671 -0.01538302 0.078376286 0.14592835
-0.0045201876 -0.11598393 0.009481329 -0.06858262 0.049801506 0.08972962 -0.046817444 -0.1081201
0.06499447 -0.06174926 -0.0064915246 0.0845756 0.047664285 -0.10584785 0.06256088 0.09396207

mlp_extractor.value_net.0.bias f4 [256]
00000000: bfec cdbb f0ab 113c 462c 6d3c 4183 613c
00000010: f482 213a 16bb a93c ad47 3b3c 0000 0000
00000020: e99b 0b3b 61ba a23b fac5 3c3c b7c0 d0bc
00000030: 099d 833b a732 fc3a 88de eeba 6efe 51bc
00000040: 0758 673c 65d8 4bbb 0000 0000 0000 0000
00000050: ba2e 803b a5ca 1bbd 80cb 3a3b 0000 0000
00000060: 9c71 0fbd de9e f1bb 8e1c 763b b010 8ebb
00000070: 0000 0000 7016 dd3b 0000 0000 f37c f5bb
00000080: 0000 0000 1417 2839 7663 86ba 7ccb f438
00000090: 0000 0000 cb3f c236 e5ce babb 0000 0000
000000a0: fc32 be3b dad9 3cbc 0000 0000 0000 0000
000000b0: fd4c 1939 843a 9d3c 97a3 8ebd 0603 a43c
000000c0: e760 63bc 4f22 bcb9 97ca 0f3c 69b7 223d
000000d0: 613d b53c 06c3 1f3b 87a9 253b f578 f03b
000000e0: 5b85 2f3d 0000 0000 0000 0000 373e 043c
000000f0: dcf8 4bbc 0000 0000 6c70 9dbb 0000 0000
00000100: 92e3 253d c145 2fbd 5a6b 193c 0c67 80bc
00000110: bd50 98bb 632e a838 5211 edbb 1705 cd3b
00000120: 6957 6cbc 29d5 f9b2 0000 0000 36d2 34bc
00000130: 0588 183c 0000 0000 0000 0000 46b8 1fbc
00000140: ad52 f3b1 1ef9 423d ef4d 363b e7de a2bb
00000150: 97c0 ecbc 0000 0000 0000 0000 6e4f d6bb
00000160: a3b8 34bc 14cc 10bc 41ba ec3b c824 acbc
00000170: a133 4a3b 4234 b33b c1d8 263d bfd4 ffbc
00000180: 44f2 62bc 3908 6ebc 0000 0000 dcf9 443d
00000190: a00f 31bc 03d0 40bb 0713 a52f f806 45bc
000001a0: d40c 72bd 91fa 86bc a631 b4b3 9815 dabb
000001b0: 1e04 533c 97cd 7a3c b422 8f3c c52d 58bc
000001c0: 0a8d f33b d47f f73b 0be9 233c c58f 73bc
000001d0: 3c35 3cbc 80b3 3dbd 0000 0000 d901 46b5
000001e0: 5d27 3e3d 0000 0000 0000 0000 25f3 b93c
000001f0: f627 c5bb bd50 debc 4679 783c 0000 0000
00000200: 0000 0000 04a3 23bd 7e01 dbbc 0fec 69bb
00000210: 0000 0000 8f43 a9bc 1587 a4bb d39b 37bc
00000220: f12e 9a3c f1a5 503c 0000 0000 8239 e5bb
00000230: 631d 39bb 886f ed3c d8dd 4b3d dd5f 90bc
00000240: 0000 0000 d567 61bc 4046 333c 7cf0 af3b
00000250: 52bc edaf e0d3 413d ccfb 85af ab18 bc3b
00000260: 929b dcbb 8084 693c 0000 0000 3679 74ba
00000270: 0000 0000 a55b 01bc e3f3 503d 1407 73b9
00000280: ed84 22bc aa1e 92b3 565f 7c3c 0000 0000
00000290: dc12 0b3c 21cd 03bd 9b36 72bc c86a d2bc
000002a0: ce47 da3b 2224 adbb 9dcb 0cbc 057c 5a3c
000002b0: b2ae 0ebb 0cab 85bc b4d3 f4b9 7398 353c
000002c0: 3a7e a83c 3af7 a739 82e4 08b5 e9d4 acbc
000002d0: 85d9 b73b c513 d4ba f363 9dbb da5e 49bb
000002e0: a439 473c 708f 013d 2cbc 0f3c 0764 6bbc
000002f0: d5d6 9dbc 1774 96bb 9a2f 25bc de62 f63c
00000300: f9d7 e7bc 0000 0000 0000 0000 0000 0000
00000310: f83b 593c 0000 0000 ae6e b1b5 9d95 173c
00000320: bf92 783d 4cab 8f3c e25a 69ba 0000 0000
00000330: 7fa8 d23c 0000 0000 ea9e 373b 94f1 163c
00000340: e24e b3bd c30c 5d3c 651d 0a35 ac56 423c
00000350: 65c5 f13a 2798 f63c 0000 0000 73d0 a43d
00000360: 898f 563c 0909 b93b 7d7f 213c 2059 13bd
00000370: 5a31 2bb4 6799 2c3c 749f 763d 97ba d13b
00000380: 07df 06bd a514 b035 0fa1 90b8 f6b5 cabc
00000390: 02bf 663c f3b8 28bc e208 44bb 9f0c d63b
000003a0: c385 843a 4994 4a3d 0000 0000 d589 f73c
000003b0: 8b3b 0a3c c411 debc b8de 0bbd efaa 92bd
000003c0: 3761 e5bb cf6e 3d35 df7e 64bb 31a7 073c
000003d0: 34c6 64b8 0000 0000 fa6f 58bd 6381 5c3c
000003e0: a00c 14bd 0000 0000 8301 16bc 41e0 ac3c
000003f0: 06c4 04b7 623e 563c 4d18 9a3c b36e 073c
-0.006284326 0.008891091 0.014475888 0.0137642035 0.0006161176 0.020719092 0.011430663 0.0
0.0021302646 0.0049660658 0.011521811 -0.025482519 0.004016523 0.001924117 -0.0018224278 -0.012817008
0.014120108 -0.0031104323 0.0 0.0 0.0039118202 -0.038035054 0.0028502643 0.0
-0.035020456 -0.007373675 0.003755364 -0.0043354854 0.0 0.0067470595 0.0 -0.0074917017
0.0 0.00016030326 -0.001025303 0.000116727286 0.0 5.789077e-06 -0.0057009333 0.0
0.0058044177 -0.011526549 0.0 0.0 0.00014619897 0.019192941 -0.06964796 0.020020973
-0.013878084 -0.00035883716 0.0087763285 0.039725695 0.022123994 0.0024377718 0.0025278048 0.007338638
0.042851787 0.0 0.0 0.008071474 -0.012449469 0.0 -0.0048046615 0.0
0.04050023 -0.042791132 0.0093639735 -0.015674137 -0.0046482966 8.0195045e-05 -0.0072347308 0.0062567103
-0.014425137 -2.908435e-08 0.0 -0.011036446 0.009309773 0.0 0.0 -0.009748524
-7.08163e-09 0.047600858 0.0027817448 -0.0049704197 -0.028900428 0.0 0.0 -0.0065402305
-0.011030349 -0.0088377185 0.0072243516 -0.021013632 0.0030853527 0.005468876 0.040734056 -0.031229375
-0.013851706 -0.014528328 0.0 0.048089847 -0.010806948 -0.002942086 3.0026845e-10 -0.012025587
-0.059094265 -0.016476901 -8.390934e-08 -0.006655406 0.0128794 0.0153078055 0.017472602 -0.013194506
0.0074325847 0.00755308 0.010004292 -0.01486582 -0.011487301 -0.046313763 0.0 -7.3763437e-07
0.04642426 0.0 0.0 0.022698948 -0.0060167266 -0.027138108 0.015165633 0.0
0.0 -0.039950386 -0.02673411 -0.003569368 0.0 -0.020662097 -0.005020986 -0.011206585
0.018821212 0.012734876 0.0 -0.006995381 -0.0028246276 0.028983846 0.049772114 -0.017623836
0.0 -0.013757666 0.010942042 0.005369244 -4.3243858e-10 0.0473212 -2.4371472e-10 0.0057402453
-0.0067324126 0.014252782 0.0 -0.0009325923 0.0 -0.007895385 0.05101384 -0.00023176923
-0.009919387 -6.8042326e-08 0.015403589 0.0 0.008488383 -0.032178048 -0.014783527 -0.025685683
0.006661392 -0.0052838484 -0.008593467 0.013335233 -0.0021771607 -0.016316913 -0.00046697038 0.01108371
0.020568002 0.0003203692 -5.099647e-07 -0.021097617 0.005610647 -0.0016180208 -0.0048031746 -0.0030726702
0.012159739 0.031630933 0.008772891 -0.01436711 -0.019267479 -0.0045914757 -0.01008215 0.03007644
-0.028301226 0.0 0.0 0.0 0.013258927 0.0 -1.321974e-06 0.009251979
0.060686823 0.017537735 -0.0008901787 0.0 0.02571511 0.0 0.0028018304 0.00921287
-0.0875528 0.013491812 5.145178e-07 0.0118614845 0.0018445669 0.030101849 0.0 0.08047571
0.013095745 0.005646829 0.009857056 -0.035973668 -1.594357e-07 0.010534621 0.06021066 0.006400417
-0.03292754 1.311903e-06 -6.8964546e-05 -0.024744969 0.014083626 -0.010298002 -0.002991252 0.0065322663
0.0010110665 0.049457822 0.0 0.03021709 0.008437048 -0.02710808 -0.034147948 -0.07161509
-0.0070001143 7.0569234e-07 -0.003486566 0.008279608 -5.4544027e-05 0.0 -0.052841164 0.013458583
-0.036144853 0.0 -0.009155634 0.021103026 -7.913453e-06 0.013076397 0.018810416 0.008266139

mlp_extractor.value_net.2.weight f4 [256, 256]
00000000: 3899 0f3e 0db9 0abe cf70 25bc 9658 a03d
00000010: 9ab8 a93d 8411 a4bd c380 4d3e 7157 183d
00000020: c4b2 2e3e c5c2 ed3d 7a37 0cbe 07ea efbc
00000030: 00ea 5dbc 2895 b93d 4420 103e d42f cd3c
00000040: f092 00be 077d 91bd 5b25 1fbd eb16 153e
00000050: ce9e 123e 7992 27be 8057 903d b54e a93d
00000060: 9835 b7be 61b9 03bd 7161 803b 6870 70be
00000070: c9d2 79bd 50fe dcbd 0e4e 033e e2c1 24be
00000080: b267 91be 6ef7 c5bc 05d1 4fbd fd7f a9be
00000090: cbca 2c3e 34b7 303c 7102 bf3d e7d5 903d
000000a0: b9e3 343d 301f 553c 37bc 32be b272 d4bc
000000b0: d522 71bd 0ec3 363e 3305 703e 45fa 5cbd
000000c0: 23b3 563d bc2f 1ebe 05be 863d 71a9 113e
000000d0: ec89 7b3c 5d51 97bd 761b b0bd e64d 41bd
000000e0: 0427 d6bd 9226 8f3c 5fa2 51bd 785e b3bc
000000f0: 9096 2e3c e3d3 13be 204d 6cbd ad1b ae3d
00000100: 9ac3 6e3e b684 87be c244 833d 2cdc d2bd
00000110: c86e 34be 690d bd3d bdd0 2fbd 91e1 71be
00000120: 9d14 983d 4b6b a8bd 4f69 28be 3eff cbbd
00000130: 8570 17be f342 e5bd 0b05 5e3e ba16 dd3d
00000140: 7cb0 7dbd 86cf a6be 98f6 9abd cbc0 20bd
00000150: f813 57bc 31be 38be ecdf 93bc ad05 ad3d
00000160: 9794 4fbd 4659 3cbe 494e b03d ec31 94be
00000170: d784 95bd 5c74 a2be c603 643e 5aca b43c
00000180: 55f7 4dbd ab5d 03bf e761 1dbe c5ef 6bbe
00000190: 1fe0 0dbe 8692 bf3c 46c7 7abb d949 4dbd
000001a0: 5c24 0f3e 77e6 aabd f229 053e a49e 193d
000001b0: 59b7 dbbd cf96 fb3d b070 e33c 55a3 a73e
000001c0: f346 643d 0426 e9bd 803e f5bd 30f4 4dbd
000001d0: 9413 773e 2e59 aebe ff08 a6bd 879b 133d
000001e0: 2807 813e 010f 52bd 99c3 2d3d e568 a73d
000001f0: ff99 3f3e 908e 71be e5b0 d43d f733 473d
00000200: 8df1 773d e225 e3be 3619 a73d f0d5 1a3e
00000210: fd8f 853d c457 1d3d b2b9 fb3d 4684 9f3c
00000220: 92db f3bd 0c98 383e b54f 833d 742e bb3d
00000230: 5925 803c a26a 8e3d 71b4 52be a772 a0bd
00000240: 05fb fdbd 1383 bc3d d9ee 41bd ac3c 7d3d
00000250: 6582 75bd 14b0 f3bd cfb2 443d 5588 6f3d
00000260: 68e4 1f3d ef94 adbd 2b90 5f3e 1d33 36bc
00000270: 5c04 c8bc ad6a 893d b249 013e ddb1 d5bd
00000280: 8fc7 0dbd 2191 8a3d facd c13d a7d4 2cbd
00000290: ebcb a2bd 13dd 79be 92f9 5dbd b472 453e
000002a0: 224f b0bd 0fd3 adbd ba50 06bd 0b2a cebe
000002b0: 3ae1 953d 5d71 183e 988e f53d a8fb 983d
000002c0: 1547 17be c318 693d beb1 b2bd 16d9 3b3e
000002d0: f608 ebbd 4334 91be e5ec 413d 62ab 783e
000002e0: 6f91 7abd 2543 8cbe 22b9 cc3d 682c 99bd
000002f0: f776 733c 66b1 8bbc 0fe4 6d3d b4de 50be
00000300: 34d4 70be 3f3a 453d 5e74 14bc 5f25 883d
00000310: f396 a83d aa42 8b3e 6f28 cebb 580a fdbd
00000320: 83a4 babe 86cf 393d 3355 c43e 73a7 45bd
00000330: fd4d 29bd f5cb a43b 53cd 243c d8ae 03be
00000340: 08a4 a8bd 6633 213e e5cc fb3d 90a3 c9bd
00000350: 57ae 813d b047 8f3e 362d f23c 53ae e4be
00000360: 9dda f33d f90e 733e 88a9 33be 6c9b 8fbe
00000370: 8aa8 b5bc 2fbb 70be 29ae f03c d04a 88bc
00000380: 2eb5 c53e 5d96 e8bd cd88 cf3d d6c3 673e
00000390: 9c6c d13c b8a2 7cbd 20d3 9ebd ad90 953d
000003a0: 3ce3 cbbd f4bc 00bf 235c 05bd 13b3 aa3d
000003b0: 92a1 38bc 2577 1e3d 0009 32be 9418 c33e
000003c0: 554c 77bd 193d 0a3d 8ba7 07bb 2fd2 83bd
000003d0: 48db f1bc f315 ba3d 24f1 85be b4c2 063e
000003e0: 5067 3ebe 2b32 3cbe 4535 873e fd46 a53d
000003f0: 9017 403e ee2b c2bc a41c 7f3d ac6c 413e
0.14023292 -0.13547154 -0.010097696 0.078293964 0.08287163 -0.08011153 0.2006865 0.037192766
0.17060381 0.11609415 -0.13693038 -0.029286398 -0.0135445595 0.090616524 0.14074808 0.02504722
-0.12556052 -0.07103925 -0.038853984 0.14559524 0.14318392 -0.16364469 0.07047939 0.08266965
-0.35783076 -0.032159213 0.003917866 -0.2348038 -0.060992036 -0.10790694 0.12822744 -0.16089585
-0.28399426 -0.024165835 -0.050736446 -0.3310546 0.16874234 0.0107858665 0.093266375 0.07072049
0.044162486 0.013007924 -0.17454611 -0.025933597 -0.05887111 0.17847845 0.23439483 -0.053949613
0.05241693 -0.15447897 0.06579212 0.14224793 0.015352707 -0.07388566 -0.08598988 -0.04719343
-0.104566604 0.017474446 -0.05118024 -0.021895632 0.010656014 -0.14436297 -0.05769074 0.085013725
0.23316804 -0.26468438 0.06409599 -0.10295901 -0.17620385 0.092310734 -0.042923678 -0.23621203
0.07425807 -0.082235895 -0.16446422 -0.09960793 -0.14789017 -0.1119441 0.21681611 0.107953504
-0.061935887 -0.32580203 -0.07566565 -0.03924636 -0.0131273195 -0.18041302 -0.01805111 0.08448348
-0.050678816 -0.1839343 0.08608682 -0.28944337 -0.07300728 -0.317294 0.22267064 0.022069145
-0.050284702 -0.513148 -0.15369378 -0.23040684 -0.13855027 0.023385298 -0.003826575 -0.050119255
0.13978714 -0.08344739 0.13004282 0.037504807 -0.1072833 0.12284624 0.027763695 0.327418
0.055731725 -0.11384204 -0.119748116 -0.050281703 0.24128562 -0.34052414 -0.081071846 0.036036994
0.25200772 -0.05128384 0.042422865 0.08174304 0.18711089 -0.2358954 0.103853025 0.048633542
0.060533095 -0.4436484 0.081591055 0.15120673 0.06521604 0.038413778 0.12291278 0.019472253
-0.11907114 0.18026751 0.06411687 0.091397196 0.015642809 0.06953932 -0.20576645 -0.07834368
-0.12401394 0.09204688 -0.047346924 0.06182544 -0.059938807 -0.118988186 0.048022088 0.058479626
0.039036185 -0.084756725 0.2183234 -0.011120585 -0.024416141 0.067098 0.12625769 -0.10434315
-0.034614142 0.067659624 0.09463115 -0.04219499 -0.079490505 -0.2440074 -0.054193087 0.19282037
-0.086088434 -0.08487522 -0.03279183 -0.4026645 0.07318349 0.14886995 0.11990088 0.074698746
-0.1477321 0.05690838 -0.08725308 0.1834453 -0.114763185 -0.28360185 0.04734506 0.24284127
-0.061173853 -0.27394977 0.09996249 -0.07479173 0.014859906 -0.017052364 0.05807882 -0.20397455
-0.23518449 0.04815125 -0.009060947 0.06647753 0.08231916 0.27199298 -0.006291441 -0.123554885
-0.36453637 0.045363925 0.38346252 -0.048255395 -0.04133414 0.0050291964 0.010058719 -0.12859666
-0.082344115 0.15742263 0.1229494 -0.0984565 0.06332081 0.2798438 0.029562574 -0.4466425
0.119069315 0.2373618 -0.1754514 -0.28048265 -0.022175092 -0.23508905 0.029379921 -0.016637236
0.38614792 -0.113568045 0.101335146 0.22633299 0.025564484 -0.06167862 -0.07755113 0.07302985
-0.09955451 -0.5028832 -0.03255857 0.08334937 -0.01126899 0.038687844 -0.17386246 0.3810469
-0.06037553 0.033749674 -0.0020699229 -0.06436574 -0.029523507 0.09086218 -0.26160538 0.13160211
-0.18594098 -0.18378513 0.2640783 0.080701806 0.18758988 -0.023702588 0.062283173 0.18889111
