TOPGRID_MORL/data/rewards/5bus_maxgymsteps_32/training_rewards_seed_42_weights_0.34670038535645475_0.0_0.6532996146435452.npy (npy, 896 bytes, 1 tensors)

array f8 [32, 3]
0	0x3fc0dd7aa93e7687	0.13175900710932728
1	0x3fc447b00068db8e	0.15843772907257087
2	0xbfc2621be44da0fd	-0.14361904761904745
3	0x3f3298f253d64f1d	0.0002837745303960625
4	0x3f36660c26c684fc	0.0003417758623758952
5	0xbf38f752047c70bc	-0.0003809523809523809
6	0x3f3343f0303437c9	0.00029396642658318907
7	0x3f38e2a3d70a3d71	0.00037971973419189455
8	0xbf3f3526859b8cec	-0.0004761904761904762
9	0x3f3447dedf40c033	0.00030945960247930336
10	0x3f3b174309b1a13f	0.00041337381998697917
11	0xbf48f752047c70bc	-0.0007619047619047618
12	0x3f933c6c5f0181ac	0.018785184191416768
13	0x3f9594a6801179ec	0.021074868742624916
14	0xbf966e33b007cd4c	-0.021904761904761913
15	0x0000000000000000	0.0
16	0x0000000000000000	0.0
17	0x0000000000000000	0.0
18	0x3efed0505b68f106	2.9386259223538657e-05
19	0x3f27e8298191f442	0.0001823950449625651
20	0xbf28f752047c70bc	-0.00019047619047619045
21	0x3fedf719f0d4a614	0.9364137366985141
22	0x3ff05f98c613634c	1.0233390557607036
23	0xbfe26c405d9f73b3	-0.5757142857142895
24	0x3f3256d20c889e4c	0.0002798331084101532
25	0x3f36b39a02752546	0.0003463984489440918
26	0xbf3f3526859b8cec	-0.0004761904761904762
27	0x3f2f67fea40a0645	0.00023961051376279928
28	0x3f34d931f8a0902e	0.00031812162399291993
29	0xbf28f752047c70bc	-0.00019047619047619045
30	0x3f31f0fd90db2814	0.0002737635667072757
31	0x3f36e374df5e5833	0.0003492508252461751
32	0xbf3f3526859b8cec	-0.0004761904761904762
33	0x0000000000000000	0.0
34	0x0000000000000000	0.0
35	0x0000000000000000	0.0
36	0x3fac1ed33a362f98	0.05492267690269087
37	0x3fb09059022f3d92	0.06470257094701129
38	0xbf8bb25efcfa0cf7	-0.013523809523809478
39	0x3f31ac9b8e066891	0.0002696876308846486
40	0x3f35f0c91d14e3bd	0.0003347865104675293
41	0xbf38f752047c70bc	-0.0003809523809523809
42	0x3f311a6e325e9961	0.0002609747920082808
43	0x3f356f705def57ca	0.00032707684834798174
44	0xbf38f752047c70bc	-0.0003809523809523809
45	0x3feba189946b08c8	0.863468923453433
46	0x3fee53edddb22d09	0.9477452592849726
47	0xbff11d8cba134f2e	-1.0697142857142796
48	0x3fa72db1cf30b7d7	0.04527049688509493
49	0x3fabee1c24dd2f1a	0.054551009654998775
50	0xbfa1b358a62e39e5	-0.03457142857142851
51	0x3fec307a67aa7e2b	0.8809177422262499
52	0x3fee937bda6293b5	0.9555033936818434
53	0xbff1536202ecfb8b	-1.082857142857139
54	0x3f95b4f825d00352	0.0211981556967687
55	0x3f9eb85a19f0fb38	0.03000012191136678
56	0xbf90c62b1b039bbf	-0.01638095238095238
57	0x3f286c169b58401c	0.00018632675134755492
58	0x3f311a858793dd98	0.000260980224609375
59	0xbf38f752047c70bc	-0.0003809523809523809
60	0x0000000000000000	0.0
61	0x0000000000000000	0.0
62	0x0000000000000000	0.0
63	0x3f2abc37d357bc74	0.00020397359337162894
64	0x3f32362d3149dd52	0.00027788737614949544
65	0xbf32b97d835d548d	-0.0002857142857142857
66	0x3fea068acabcd599	0.813298603031103
67	0x3fee2c8ae5119ce4	0.9429373239517216
68	0xbff26c405d9f73b3	-1.151428571428579
69	0x3f27f292fce44595	0.0001827053478753836
70	0x3f31063c01a36e2f	0.0002597710132598877
71	0xbf28f752047c70bc	-0.00019047619047619045
72	0x3f3ee1a92c8bb73e	0.00047121410584237747
73	0x3f44bb7bb2fec56e	0.0006327013015747071
74	0xbf48f752047c70bc	-0.0007619047619047618
75	0x0000000000000000	0.0
76	0x0000000000000000	0.0
77	0x0000000000000000	0.0
78	0x3f308e4d7d2bf29d	0.00025262252636063816
79	0x3f36f74a8c154c98	0.00035043306350708006
80	0xbf28f752047c70bc	-0.00019047619047619045
81	0x3f3ae7f3bf6369cd	0.0004105539404811981
82	0x3f3ce4cd35a85879	0.000440883731842041
83	0xbf3f3526859b8cec	-0.0004761904761904762
84	0x3fd3759b6f712969	0.3040531719494966
85	0x3fd4f6ee8a34b3b7	0.32757152077357027
86	0xbfd810624dd2f199	-0.37599999999999906
87	0x0000000000000000	0.0
88	0x0000000000000000	0.0
89	0x0000000000000000	0.0
90	0x3f2cbbb810691df8	0.0002192175090433982
91	0x3f334d2869f32a76	0.0002945159594217936
92	0xbf38f752047c70bc	-0.0003809523809523809
93	0x3f29d59042e98b0f	0.0001970995521843534
94	0x3f2f73694467381d	0.00023995075225830077
95	0xbf42b97d835d548d	-0.0005714285714285714
