TOPGRID_MORL/data/rewards/5bus_maxgymsteps_32/training_rewards_seed_42_weights_0.37255549682875266_0.0_0.6274445031712473.npy (npy, 896 bytes, 1 tensors)

array f8 [32, 3]
00000000: dc8d b1fc 3e8d 273f ac41 8510 7d44 313f
00000010: 8d54 5d83 7db9 32bf 4591 95b0 df8f 283f
00000020: add5 31c1 83f3 313f 0000 0000 0000 0000
00000030: ce37 df77 dd86 203f 0715 42f4 913e 2d3f
00000040: bc70 7c04 52f7 28bf 8cf9 8a14 7949 013f
00000050: 678b 9112 a841 273f ec8c 9b85 2635 3fbf
00000060: 0000 0000 0000 0000 0000 0000 0000 0000
00000070: 0000 0000 0000 0000 d934 9505 b36f be3f
00000080: b6f3 fd54 1fd4 c33f c562 4b3b a055 b2bf
00000090: 781b cd9b ca52 773f 84a1 fb5f 3bfc 7e3f
000000a0: 4454 a094 0cbf 79bf f4b4 4e80 858f 2f3f
000000b0: c139 234a 7b88 363f a5e2 ecc3 67d8 45bf
000000c0: 0000 0000 0000 0000 0000 0000 0000 0000
000000d0: 0000 0000 0000 0000 dd2b 1391 d801 a53f
000000e0: 7999 746e 536c a73f c762 4b3b a055 a2bf
000000f0: 1808 46c2 756e 383f 557a 8001 97cf 3c3f
00000100: bc70 7c04 52f7 38bf 0464 6f4c 7758 5f3f
00000110: 2db2 9def 471e 623f 4e1b e8b4 814e 6bbf
00000120: 7686 f390 706f db3f 1c60 c065 249e de3f
00000130: bcb3 0b88 4da5 e1bf 4657 978f 7990 aa3f
00000140: 194e ac66 1c56 ad3f 414f 13ba 8c1d b1bf
00000150: 57b0 fb85 0d17 8b3f 534c cb35 966f 913f
00000160: e13e bb80 d854 8abf 0000 0000 0000 0000
00000170: 0000 0000 0000 0000 0000 0000 0000 0000
00000180: 1a89 3d00 c112 313f 4df3 8e53 7424 373f
00000190: 8d54 5d83 7db9 32bf 7ef8 617e 30e1 303f
000001a0: 7d89 8bb6 3d16 373f 8d54 5d83 7db9 32bf
000001b0: 0000 0000 0000 0000 0000 0000 0000 0000
000001c0: 0000 0000 0000 0000 392d 9444 fdbe a23f
000001d0: 45d5 c23f b934 a53f 437f 27ab e58d a1bf
000001e0: 8218 67b6 bd7f 383f d712 f241 cfdc 3b3f
000001f0: bc70 7c04 52f7 48bf ff1a cc60 5b39 383f
00000200: 13f2 41cf 6689 3b3f bc70 7c04 52f7 48bf
00000210: 0000 0000 0000 0000 0000 0000 0000 0000
00000220: 0000 0000 0000 0000 3cf5 5848 6ee6 e53f
00000230: 6bff 6b33 acb2 eb3f 627e 6abc 7493 e8bf
00000240: 09c9 f7c2 b6a5 a53f 5af2 8b25 f961 a93f
00000250: a91e 85eb 51b8 9ebf 0000 0000 0000 0000
00000260: 0000 0000 0000 0000 0000 0000 0000 0000
00000270: 98bd 9f1e c449 a83f be0e 9c33 2a61 ab3f
00000280: 3ccd 07b0 336e a6bf 0000 0000 0000 0000
00000290: 0000 0000 0000 0000 0000 0000 0000 0000
000002a0: 9e38 0891 3845 ad3f a164 8535 e7eb b03f
000002b0: 4d7f 27ab e58d b1bf 6171 214e 2a05 e53f
000002c0: 611d 13fc 266e ea3f 82be 19f8 10d2 e6bf
000002d0: 9c19 60d8 af2c ec3f 4478 551a a4a9 ef3f
000002e0: 627e 6abc 7493 d8bf 033d 804b 37b9 343f
000002f0: 5af5 b9da 8a3b 393f bc70 7c04 52f7 28bf
0.00017968553433710024 0.0002634816487630208 -0.0002857142857142857 0.00018739324176942677 0.00027391401926676434 0.0 0.00012608960599752448 0.0002231171766916911
-0.00019047619047619045 3.2972343040327164e-05 0.00017743279139200848 -0.0004761904761904762 0.0 0.0 0.0 0.11889189611720798
0.1549109616279602 -0.07161904761904754 0.005694190444791462 0.007564765866597493 -0.006285714285714287 0.00024078850415546577 0.00034382829666137696 -0.0006666666666666666
0.0 0.0 0.0 0.041029708585106774 0.045748336060841895 -0.035809523809523784 0.0003727948663013749 0.00043961941401163734
-0.0003809523809523809 0.001913181784166663 0.002211704730987549 -0.003333333333333333 0.4286767402209998 0.4784022325197854 -0.5514285714285658 0.05188350560972181
0.057297599347432455 -0.06685714285714274 0.013227563525525605 0.017027232201894126 -0.012857142857142847 0.0 0.0 0.0
0.00026051723420130043 0.000353125 -0.0002857142857142857 0.00025756296088975245 0.00035227781931559244 -0.0002857142857142857 0.0 0.0
0.0 0.03661338293212641 0.04141787436803183 -0.034285714285714274 0.00037382489827243054 0.00042514858245849607 -0.0007619047619047618 0.0003696296778773894
0.0004201770782470703 -0.0007619047619047618 0.0 0.0 0.0 0.6843787587201073 0.8655606273969004 -0.7679999999999831
0.04227992181758295 0.04957560141881308 -0.029999999999999947 0.0 0.0 0.0 0.04743779062107051 0.05347568397521972
-0.043809523809523715 0.0 0.0 0.0 0.05716873903667018 0.06609959656397503 -0.06857142857142869 0.6568805242527952
0.8259463237126675 -0.7131428571428418 0.8804549432832576 0.9894581331570937 -0.38399999999999157 0.0003162155148865449 0.00038501873016357423 -0.00019047619047619045
