TOPGRID_MORL/data/rewards/5bus_maxgymsteps_32/training_rewards_seed_42_weights_0.0_0.2779056386651323_0.7220943613348677.npy (npy, 896 bytes, 1 tensors)

array f8 [32, 3]
0	0x3f28406a03d9c3ac	0.0001850251591579954
1	0x3f32a55b9d265da9	0.00028451430002848305
2	0xbf28f752047c70bc	-0.00019047619047619045
3	0x0000000000000000	0.0
4	0x0000000000000000	0.0
5	0x0000000000000000	0.0
6	0x3fc36249312b5bfe	0.15143694783066047
7	0x3fc703f305532611	0.17980802307128887
8	0xbfc9e79e79e79e38	-0.20238095238095055
9	0x3f2ed3aa44c9eb59	0.00023518994784751493
10	0x3f338f89a0275254	0.0002984724998474121
11	0xbf3f3526859b8cec	-0.0004761904761904762
12	0x3fe684996f7ebfcb	0.7036864450110384
13	0x3fe925fa3e23c594	0.7858859265963241
14	0xbfdd130463796a41	-0.4542857142857067
15	0x3fa99d9b4873407c	0.05003056773569001
16	0x3fade82e740da73f	0.05841202894846597
17	0xbf88618618618606	-0.011904761904761873
18	0x3f77265132a9d98e	0.005651776484788219
19	0x3f7bb4c58564a004	0.00676419407526652
20	0xbf73e5155b9329d7	-0.004857142857142858
21	0x3f210809e7275934	0.00012993927846478295
22	0x3f2ab1e654ec79ca	0.00020366608301798504
23	0xbf3f3526859b8cec	-0.0004761904761904762
24	0x3fe8a69ea1319df8	0.7703393123928768
25	0x3fec4e684cde46c1	0.884571218617758
26	0xbfec8a7bdaf0e325	-0.8919047619047872
27	0x3f95d0a20ba9becd	0.02130368419824329
28	0x3f9eb91d32617c1d	0.030003029060363774
29	0x0000000000000000	0.0
30	0x0000000000000000	0.0
31	0x0000000000000000	0.0
32	0x0000000000000000	0.0
33	0x3feb323bc5ca6718	0.8498820174311019
34	0x3fef245c26ac4e14	0.9731884723027542
35	0xbfe26e978d4fdf5e	-0.5760000000000038
36	0x3f97e36480809245	0.0233283713752306
37	0x3fa09f9d0b0f27bb	0.032467753982543944
38	0x0000000000000000	0.0
39	0x3f2c2e59822d811b	0.0002150043738664641
40	0x3f328ac4e18d95c7	0.00028292948404947917
41	0xbf38f752047c70bc	-0.0003809523809523809
42	0x3fec1f6192b24a05	0.8788307061352617
43	0x3fef0f85c81b4e7a	0.9706448467572522
44	0xbff19bf0c94a0540	-1.1005714285714276
45	0x3fa813962801419f	0.04702443350163609
46	0x3facbadb58e21965	0.05611310443878174
47	0xbfa2b97d835d5484	-0.036571428571428505
48	0x3f1e97dec405ffee	0.000116703959980313
49	0x3f2a3884fbc478b2	0.0002000486691792806
50	0xbf28f752047c70bc	-0.00019047619047619045
51	0x3f194ba7f1226776	9.649479423714892e-05
52	0x3f26ae66895a3fa0	0.000173044220606486
53	0xbf42b97d835d548d	-0.0005714285714285714
54	0x0000000000000000	0.0
55	0x0000000000000000	0.0
56	0x0000000000000000	0.0
57	0x3f307351aa40db16	0.0002510141732758193
58	0x3f34a00925d1da0b	0.00031471465428670246
59	0xbf32b97d835d548d	-0.0002857142857142857
60	0x3f373663a867943d	0.00035419400265218945
61	0x3f3b4112d77318fc	0.00041586599349975584
62	0xbf38f752047c70bc	-0.0003809523809523809
63	0x3fa38f65f325f2de	0.03820341675871018
64	0x3fa7be42afdadcea	0.04637344738642375
65	0xbfab101767dce440	-0.052857142857142936
66	0x3f317e0abac1d6f9	0.00026691209746530737
67	0x3f34fb09d495182b	0.00032013883590698244
68	0xbf48f752047c70bc	-0.0007619047619047618
69	0x3fec0f3411610c44	0.8768558825908106
70	0x3fee3c4d445e7b32	0.9448610625584932
71	0xbff4131d5acb6f2f	-1.2546666666666615
72	0x0000000000000000	0.0
73	0x0000000000000000	0.0
74	0x0000000000000000	0.0
75	0x0000000000000000	0.0
76	0x0000000000000000	0.0
77	0x0000000000000000	0.0
78	0x3f27fb8c7c58e7ca	0.00018297281182971657
79	0x3f30de4b066ac4e2	0.0002573903242746989
80	0xbf38f752047c70bc	-0.0003809523809523809
81	0x3f255d0dead7f7a8	0.0001629905213320047
82	0x3f2b6924ba3b4166	0.0002091271718343099
83	0xbf42b97d835d548d	-0.0005714285714285714
84	0x0000000000000000	0.0
85	0x0000000000000000	0.0
86	0x0000000000000000	0.0
87	0x3fc4d83966d6dde3	0.16284863969279603
88	0x3fcb3ed7403d2abd	0.21285524975458783
89	0xbfb903cdad7eaebd	-0.09771428571428493
90	0x3fe1d38a541e9df2	0.5570727961502924
91	0x3fe58d6cbd2abc21	0.6735137648264563
92	0xbfeb7bc1f9903c5e	-0.858857142857129
93	0x3f9dc93e5850154a	0.029087995662867606
94	0x3fa3b1ef13404ea6	0.03846690282821656
95	0x0000000000000000	0.0
